models/lstm.pt (torch, 214933 bytes, 10 tensors)

lstm.weight_ih_l0 f4 [256, 3]
000000 00 a2 2f bc 9c 35 a7 bd ee 8d c6 3d 95 2f 9f 3c
       -0.010719776 -0.08164522 0.0969504 0.019431869
000010 f0 16 a1 3c fa f3 f3 3d bd 74 7c 3c 48 aa f3 bd
       0.019664258 0.11911769 0.015408692 -0.11897713
000020 14 5f 6d bd 92 0e 73 3d ee 4a df bd 62 60 dd bd
       -0.057952 0.059340067 -0.109029636 -0.10809399
000030 fd ae 00 3e c2 5e b3 3d 9a 54 d9 bd 25 e4 c1 bc
       0.12566753 0.08758308 -0.106118396 -0.023668358
000040 aa e9 8c bd 60 85 5d bd 01 69 7c 3b 70 84 8a bd
       -0.068805054 -0.054082274 0.0038514736 -0.06763542
000050 7a 65 cb 3d 22 8f 98 3c c2 8e f6 bd e8 83 b7 3d
       0.099314645 0.018622939 -0.12038948 0.08960706
000060 6c c3 53 3d 0e b4 b6 3d ca 93 ad bd 6b 9b 29 3b
       0.05170004 0.089210615 -0.08475454 0.002587999
000070 70 37 6b 3c a0 a2 e4 bd c9 ba 88 3d 30 94 37 3c
       0.014356479 -0.11163831 0.066762514 0.011204764
000080 a0 56 8d 3b 81 88 86 38 80 19 0e 3c 8c 66 ff 3d
       0.004313305 6.415044e-05 0.008673072 0.12470731
000090 c5 e7 4d ba 48 c9 97 bd 7a 61 aa 3d 4a 84 48 bd
       -0.0007854666 -0.07411438 0.083193734 -0.048954286
0000a0 00 4a 59 bd ba 48 dc 3d cf ad bf bc 50 5b 71 3c
       -0.053049088 0.10756059 -0.023398308 0.014731243
0000b0 c2 e6 94 bd 48 68 11 3e e2 43 e5 3d 1a e9 b5 bd
       -0.07270576 0.14199936 0.11194588 -0.08882351
0000c0 c1 c3 13 bd e0 e3 44 3c 6c d5 e2 3d 1f 8e 3d 3c
       -0.036075357 0.01201722 0.11075863 0.011569529
0000d0 94 34 0b 3d d0 6e 2b bd 80 b4 f6 ba 8c fd a6 bd
       0.03398569 -0.041853726 -0.0018822104 -0.08153829
0000e0 c6 6f 97 3d 2c 72 4c bd 20 18 c5 bb 14 28 b1 bd
       0.07394366 -0.04991357 -0.006014839 -0.086502224
0000f0 6d 9e 7c bc cc 74 76 3d d6 c1 b8 3d 82 ab 06 3e
       -0.015418631 0.06016998 0.09021346 0.13151363
000100 74 98 d4 3d 3e 5f a1 bd ce ee 96 bd c0 15 c3 3b
       0.103806406 -0.07879494 -0.07369767 0.0059535205
000110 98 9f 73 3d cb 19 0d 3e 24 4e 31 3d 9c 28 72 3d
       0.059478372 0.1377937 0.04328741 0.05912076
000120 96 65 95 bc e8 72 8f 3d 70 7d 49 3c 5b f8 07 3e
       -0.018236917 0.070043385 0.012297973 0.13278334
000130 30 18 58 3d d4 ca 85 3d dd 30 ac 3c dc f0 8f bd
       0.052757442 0.06532827 0.021019394 -0.07028362
000140 00 14 7b 39 74 82 1e bc 76 e2 d8 bd b0 bc ff bc
       0.00023944676 -0.009674657 -0.10590069 -0.031217903
000150 c6 c7 eb bd f0 df ab bc 94 50 73 bd 30 57 bc bc
       -0.11512713 -0.020980805 -0.059403017 -0.022990793
000160 70 5c 21 3c 7a 5f c3 bd ae f8 80 3c e0 90 36 bc
       0.009848699 -0.09539695 0.01574358 -0.011142939
000170 18 87 26 3d 78 50 29 bc 6c a3 0f bd 10 78 1b bd
       0.04065618 -0.010334127 -0.03506796 -0.037956297
000180 11 10 84 3d a0 14 d8 3b e8 2b bf bd f3 75 fe bb
       0.06448377 0.0065942556 -0.09334546 -0.0077655255
000190 50 cf 2d bc 68 6c 0f bd e4 4b 15 bd 60 9a 8b bd
       -0.010608509 -0.035015494 -0.036449328 -0.06816554
0001a0 8a da b8 3d 3c e5 99 bc 90 e8 68 bd 00 55 aa bc
       0.09026058 -0.018786065 -0.056862414 -0.020792484
0001b0 26 d1 15 3c a0 d5 fa 3b 86 8b fe 3d 43 f0 9f 3c
       0.009144103 0.0076548606 0.12428956 0.019523745
0001c0 94 35 2c 3d ba 80 8a bd 91 b0 c4 bb 80 e9 92 ba
       0.042043284 -0.06762834 -0.0060024937 -0.0011208504
0001d0 a0 c5 a8 bb 1b 92 3b bc 18 0e fd bc 30 f7 3a bd
       -0.005150512 -0.0114484085 -0.03089051 -0.045645893
0001e0 59 6e 3a 3d 68 fe 9d 3d 60 5c f0 3b da 4a ad 3d
       0.045515392 0.0771454 0.0073352307 0.084615424
0001f0 54 29 00 3d 36 86 f3 3d 14 f0 b5 3d 80 2d c8 3b
       0.031289414 0.11890833 0.08883682 0.0061089396
000200 80 59 e0 bc e7 fc d5 bc c4 e4 8f bd f8 0c 87 bd
       -0.027386427 -0.02612157 -0.070260555 -0.065942705
000210 00 63 e5 3c a4 71 b1 3d 96 45 81 3d b9 7c 1c 3d
       0.028001308 0.08664253 0.063121006 0.038204882
000220 50 ba 20 bd 5c 09 24 3d 51 dd 0d bd 4c ae 9b 3d
       -0.03924018 0.04004799 -0.034634892 0.07601604
000230 c4 83 33 bd b5 ba eb 3b 36 8a 82 3d 4e 7e ec bd
       -0.043826833 0.007193888 0.06374018 -0.11547528
000240 85 e0 e6 bc 92 e0 83 bd c0 73 0a bc 92 76 15 3d
       -0.028183231 -0.06439318 -0.0084504485 0.03649003
000250 6c 8f 60 3d 38 91 8f bc 16 8c f4 3d 8c 35 b6 bd
       0.054824278 -0.0175253 0.11940782 -0.08896932
000260 88 8c b6 bc 2b d1 ef bc a2 52 bf 3d f0 bc 89 3c
       -0.022283807 -0.029274544 0.09341933 0.016813725
000270 4e d0 ae bc a8 d0 f7 3c 68 38 f2 bc 10 74 b8 3d
       -0.021339562 0.030250862 -0.029567912 0.09006512
000280 38 b1 a7 3c a8 ac 6c 3d 92 68 25 3e 8c 01 2c bd
       0.020470247 0.057781845 0.16153172 -0.041993663
000290 7c 31 a6 3d 94 dd fd bb 70 c3 c1 3d 4c bf 1c 3d
       0.08114907 -0.0077473614 0.09461105 0.038268372
0002a0 45 13 42 3c 30 0b 41 bc d4 ef fe 3d e4 ee 4e bc
       0.0118454145 -0.011782452 0.12448087 -0.012630198
0002b0 a0 0e 84 3b c8 f1 85 bc 5b 75 6e bb 20 c5 ca 3d
       0.0040300637 -0.016350642 -0.0036385867 0.0990088
0002c0 10 c2 98 bc 8d 5a e6 3c 48 0b 6a bd 64 3d 05 3d
       -0.018647224 0.02811935 -0.057139665 0.03252925
0002d0 d6 c4 8b 3d e0 5c af bc 16 46 b0 3d 32 3c 09 3b
       0.06824653 -0.021406591 0.08607118 0.002094042
0002e0 80 21 c9 3c f8 20 94 bc bd 90 b1 3c aa ac 83 bd
       0.024552107 -0.018082127 0.021675462 -0.064294174
0002f0 d8 4a 94 bc 2f f5 89 3c 3c 25 0d 3d 00 47 fe bc
       -0.018102095 0.016840545 0.034459338 -0.031039715
000300 0a 67 2d 3d 00 eb 3e 3c 62 6c cb 3d 78 c3 cc 3b
       0.042334594 0.011652708 0.09932782 0.0062488876
000310 78 da d4 3d 48 4f bc 3d 2e 2e c2 3c 78 b5 e3 bd
       0.10393232 0.09194809 0.02370366 -0.11118597
000320 70 bd 39 bc 7f 31 e5 3d d0 91 02 3c e0 b6 93 bb
       -0.011336669 0.11191081 0.007969335 -0.0045078844
000330 ec 99 11 3e 98 35 fc bc c0 e2 38 3d 5d 3c a8 3d
       0.14218873 -0.030787274 0.04513812 0.082146384
000340 16 b1 cc 3d 78 68 60 3d a7 92 b6 3d 40 d1 d0 bd
       0.09994714 0.05478713 0.089146905 -0.10196161
000350 e4 3e cf bd 06 6f 31 3c 70 53 73 bd 70 f3 06 bc
       -0.10119417 0.010829693 -0.059405744 -0.008236751
000360 4b 24 bf 3d 58 8a 6a 3d b8 c4 c8 3d f6 3a d1 3d
       0.09333094 0.05726084 0.09803146 0.10216324
000370 76 a8 a1 bd d0 5d 5c 3c 4a e5 13 3d 4c a5 6e bd
       -0.078934595 0.013450101 0.03610734 -0.058263108
000380 12 eb c8 bd fd c0 09 3d 80 9d ec 3b 74 26 bd 3d
       -0.09810461 0.033631314 0.007220924 0.0923585
000390 29 fb f6 3d 44 5f 76 3d ec e7 01 3d 22 19 06 3e
       0.12059624 0.060149446 0.03171532 0.13095525
0003a0 62 64 f5 bd 18 e8 8e 3d 86 9f f2 3c 02 b9 d9 bd
       -0.11982037 0.06977862 0.029617082 -0.106309906
0003b0 5e aa e3 3d a7 24 3e 3c 98 dd c8 3c 94 7d 21 bd
       0.11116479 0.011605418 0.024519727 -0.0394264
0003c0 37 7f 85 3d 10 80 92 bc 18 21 ad 3d ef 80 54 3c
       0.06518405 -0.01788333 0.08453578 0.012970193
0003d0 e4 3d e1 3d 92 49 b9 3d b3 b0 00 3e cc 82 eb 3d
       0.10998133 0.090472355 0.12567405 0.11499557
0003e0 90 cb 64 3d 56 1e ec 3d 2c ae b4 bd 4c a3 15 3d
       0.055858195 0.115292236 -0.08822283 0.036532685
0003f0 9e 10 8b 3c 00 be fc 3c 70 76 dc bd 73 e5 46 bc
       0.016975697 0.030852318 -0.10764778 -0.012139666

lstm.weight_hh_l0 f4 [256, 64]
000000 cc 98 29 3e ae ea e2 3d e2 75 8e bc 79 16 0b be
       0.16562194 0.11079918 -0.017390195 -0.13582791
000010 0b b0 3a be 4b b6 01 be 57 4b 85 bd f5 91 cc bd
       -0.18231218 -0.12667195 -0.065085106 -0.099887766
000020 cb 60 6c bd 7d 1f 5f bd 53 54 31 bd 57 44 8d be
       -0.057709496 -0.05447339 -0.04329331 -0.27591202
000030 bc 12 4c be f4 87 22 bd 65 e6 63 bd de b0 1f be
       -0.19929022 -0.039680436 -0.055639643 -0.15594813
000040 a1 b4 9e bd 5d 1a 41 3e 15 63 37 bd b3 f0 2b 3d
       -0.07749296 0.18857713 -0.044772226 0.041977596
000050 2b 06 fe 3b 68 5e 1d 3e 14 1f 0a be c2 89 55 bd
       0.0077522 0.15368044 -0.13488418 -0.05213333
000060 07 33 38 3e 65 49 f9 bd 61 a0 30 bd 61 f1 06 3e
       0.17988215 -0.12172202 -0.0431217 0.13178016
000070 e6 d4 f5 bb 46 a4 9f bd f6 17 4a 3b 8d 1d 44 3e
       -0.007502186 -0.077950045 0.0030837036 0.19151898
000080 b9 fd 39 be 16 4a 1a bd 54 d1 d5 bd aa 6e 1d bd
       -0.18163194 -0.03766831 -0.10440317 -0.038435616
000090 ef 57 4d 3d 5a 7f 0c 3e a8 e6 0b 3d 92 a0 19 be
       0.050132688 0.13720456 0.034155518 -0.15002659
0000a0 6f a6 44 be 5c d9 35 3e 47 d4 04 3e a5 2b 84 3d
       -0.19204114 0.17758697 0.12971602 0.06453637
0000b0 61 fa 9a 3d 5f c2 3d 3d 7c 45 11 3d c0 36 14 3d
       0.07567287 0.046327945 0.035466656 0.036185026
0000c0 b8 86 80 3d 33 02 26 3e 8c cf cb bc f1 65 1d 3c
       0.062756956 0.16211776 -0.02487924 0.009606824
0000d0 a3 a6 7d bc 3d 5e 46 3e 5b 80 91 bd 08 c4 9a bd
       -0.015481624 0.19371887 -0.0710456 -0.07556921
0000e0 4d 4a eb 3c 34 dd 04 be 05 5d 8d bb 51 cb 91 bd
       0.028721953 -0.12975007 -0.0043140673 -0.07118858
0000f0 27 05 9f 3c 1b 99 15 be 9f 17 9d bd d3 d6 a5 3d
       0.019411637 -0.14609186 -0.07670521 0.08097615
000100 e7 6d 1b 3e 53 12 cf 3d f4 70 f5 3d 21 fa 71 3d
       0.15178643 0.10110917 0.11984435 0.059076432
000110 f0 92 f7 3c e3 0d d9 bd de 32 25 bc 33 f3 ef bd
       0.030221432 -0.10598352 -0.010082928 -0.117163084
000120 2d 42 49 bb 55 24 92 3d 0e 6b ec 3c 0e f9 9d bb
       -0.003070961 0.07135836 0.028859641 -0.0048209494
000130 8f 0a 04 be ff 42 6c 3d 03 57 9f 3d 9d 79 95 3d
       -0.12894653 0.05768108 0.07780268 0.072985865
000140 73 b8 61 3d d0 cd dc bd 1d 5f 13 be 55 c0 18 3e
       0.055107545 -0.10781443 -0.14391752 0.14917119
000150 42 55 89 3d b3 14 45 bd a6 27 9a bc 4d a7 0f 3e
       0.06705715 -0.048115443 -0.018817734 0.14028664
000160 c4 a3 29 bc 4d 4a 8f bd f4 8a 1d 3d d0 3a e5 3d
       -0.010353986 -0.069965936 0.038462594 0.11192858
000170 58 dc f7 bb 64 cc 35 bd 46 8c f7 3d 61 48 72 bd
       -0.007564109 -0.044384375 0.12087302 -0.059151057
000180 4e 48 74 bd 38 81 fb 3d 78 f5 54 3d 6c b3 ae 3c
       -0.059639268 0.12280506 0.05199191 0.02132579
000190 c1 62 4a 3d e1 b0 a1 3d bd ba 22 be 14 06 2f be
       0.049410585 0.07895065 -0.15891548 -0.17092162
0001a0 f6 d1 e3 bc 3a b7 5d bd c1 1e e8 3c 0c 56 2f 3e
       -0.027810078 -0.054129817 0.028334977 0.17122668
0001b0 e4 e9 97 bd 2f 4b 9d bb f6 1d e7 bc b9 b0 c9 3d
       -0.07417658 -0.0048002223 -0.028212529 0.0984816
0001c0 7e 1e 6d 3d c4 e9 fa 3c b2 59 d5 bd 9d de cd 3c
       0.057890408 0.030629046 -0.10417499 0.025130564
0001d0 f2 a9 1a bd 7e 4e 99 3d f2 f6 19 bc e7 fe 19 be
       -0.03775973 0.07485674 -0.009397255 -0.15038644
0001e0 69 d8 82 3d 67 b8 6d bd c1 7b 11 3d dd 1b 4d bb
       0.06388933 -0.058037188 0.03551841 -0.0031297125
0001f0 29 e0 04 be 56 c4 d4 bd 98 c7 06 be 1f 97 9d bd
       -0.12976135 -0.103890106 -0.13162076 -0.0769484
000200 45 8f dd 3d 69 83 09 3e 4e 43 02 3e 27 90 7b bd
       0.10818342 0.13429035 0.12720987 -0.06141677
000210 9a ae d8 3d c6 cb a0 3d ae 73 6a 3c 24 d1 2c 3d
       0.105801776 0.07851367 0.014309807 0.04219164
000220 5a bc 02 3e 34 f1 40 bd eb 0a ac bc ed 54 a5 3d
       0.12767163 -0.04710503 -0.0210013 0.08072839
000230 c4 ab e0 bd d5 85 30 3d c5 4e 06 be ac e8 bb bc
       -0.10970262 0.043096382 -0.13115986 -0.022938095
000240 eb fd 5d bd d5 5b 98 bd 90 45 f1 bd 00 00 c6 bd
       -0.054197233 -0.074393906 -0.11780846 -0.09667969
000250 d2 ec a9 3c 30 27 c1 3c 1f 18 63 bd 2d 04 a3 bc
       0.020742808 0.023578256 -0.055442926 -0.019899452
000260 8c ef 66 3d aa 37 a4 3d 6c ec 21 bd d7 e2 03 3d
       0.056380793 0.080184296 -0.03953211 0.032198753
000270 7d 95 c1 3d 90 c9 a3 bd b1 79 1d ba d9 90 b8 3d
       0.09452341 -0.07997429 -0.0006007208 0.090120025
000280 08 55 09 be c8 fe 67 bb 1e a4 b3 bd 0e 4f b1 bc
       -0.13411343 -0.0035399664 -0.08771537 -0.021644142
000290 b2 54 27 bd d9 5b 8e 3c 10 ec 00 be 10 92 bb bc
       -0.040852256 0.01737778 -0.1259005 -0.022896796
0002a0 47 bd a3 3b b5 ec db 3d 9a dc b3 bc ab 4b ac 3d
       0.004996929 0.10738508 -0.021955777 0.0841287
0002b0 b7 45 0b 3e 7c 11 f6 3d 81 4f 0e be 8b e3 a1 bd
       0.13600813 0.12015054 -0.13897516 -0.079047285
0002c0 47 43 cd 3d 32 fa 19 bd de 34 d1 bd 05 ee 23 bd
       0.10022598 -0.03759212 -0.10215162 -0.040021915
0002d0 f8 b2 ae 3c b8 84 9e 3c ad 38 99 bd 41 01 ee 3a
       0.021325573 0.019350395 -0.07481513 0.0018158333
0002e0 51 a8 d2 3d c1 c1 9e bd 81 11 0b bc 4d c8 d8 3d
       0.1028601 -0.077517994 -0.00848806 0.10585079
0002f0 75 d2 b6 bd 83 58 f0 3c 31 ca d2 bd f4 34 95 bd
       -0.0892686 0.02933908 -0.10292471 -0.07285491
000300 4b de 0a 3e 49 e4 35 bd 99 5e d0 3d e9 5e 22 bd
       0.1356136 -0.044407163 0.10174293 -0.039641295
000310 30 a3 cd bd 45 41 c4 3d 73 90 c6 3d 2d 83 65 3d
       -0.10040891 0.09582762 0.0969552 0.056033302
000320 e6 6f e3 3b c5 cf 02 ba b8 75 a4 3d b4 04 a4 3d
       0.0069408296 -0.00049900665 0.080302656 0.080087095
000330 b3 21 bf 3b c3 b2 16 3e 26 9a 1e bc 2f 6e 92 3d
       0.0058328747 0.1471663 -0.009680307 0.07149922
000340 0b 6c ed bd c0 5c b7 bd 27 d5 d9 bd 30 96 12 bd
       -0.11592873 -0.089532375 -0.10636359 -0.03578776
000350 57 1a 1f 3d d4 76 ec bc a6 d5 27 b9 0c a7 12 3d
       0.03884348 -0.028865255 -0.00016005951 0.03580384
000360 d3 e3 91 3d b6 3c e0 b9 a8 e2 b6 bd 12 08 15 3d
       0.07123532 -0.00042769843 -0.0892995 0.03638465
000370 f7 6e a8 bd ed 70 38 bd e2 0c 74 bd f2 6c 17 bd
       -0.0822429 -0.04502957 -0.0595826 -0.036969133
000380 2b 41 bf bd 7b 4a c6 3c a9 a5 02 3c 9d f3 9c 3d
       -0.09338602 0.024205437 0.007974067 0.07663653
000390 cb d6 ad bd 74 14 ae bd f3 ef 9f 3d a8 05 af bd
       -0.08488234 -0.08499995 0.078094386 -0.08546001
0003a0 ea e1 7a 3d b1 66 d2 bc ca 4d ad bd ed 04 3f bc
       0.061250605 -0.025683733 -0.08462103 -0.011658889
0003b0 a7 8b ef 3d df ab 94 3d 50 2c 05 3c fd bf d3 3d
       0.116965584 0.07259344 0.008128241 0.10339353
0003c0 d8 0e 9c 3d 2c 5e 73 3d b4 19 d7 3c 0a 93 1f 3e
       0.07620019 0.05941598 0.026257373 0.15583435
0003d0 f0 72 c4 bd 3a f0 40 3c 1e c0 aa 3d 81 01 c4 bd
       -0.09592235 0.0117760245 0.08337425 -0.09570599
0003e0 6d b1 e8 3c f5 d2 a4 3d 50 00 95 3d a6 c7 af 3d
       0.028404916 0.08048049 0.0727545 0.08583002
0003f0 6d f9 a9 3d 07 d2 58 3c ca 30 07 be 45 6f 8c bd
       0.08299527 0.013233668 -0.13202205 -0.068571605

lstm.bias_ih_l0 f4 [256]
000000 f7 14 31 bd ff 8d eb bc ea 38 82 bd fe be d8 bc
       -0.043232884 -0.028754232 -0.06358512 -0.02645826
000010 d0 b4 3e 3d dd 10 9a bd 7c 74 86 bd e8 c3 91 3d
       0.046559155 -0.07522748 -0.065651864 0.07117444
000020 c4 01 d6 3d 31 e8 a1 3c be be 06 3e 03 d9 62 3d
       0.104495555 0.019764038 0.131587 0.05538274
000030 d9 88 b0 bd fd 39 1e bd 22 de c1 bc 80 3e f8 bc
       -0.086198516 -0.03862952 -0.023665491 -0.03030324
000040 cc 78 ee 3c 98 83 d0 3c 1f f8 00 3d 55 e7 90 3d
       0.029110335 0.025453374 0.031486627 0.07075373
000050 47 1e 60 3d 3e 88 e7 3b 7c ae ea 3c cc dc 80 3d
       0.054716375 0.007065802 0.028647654 0.06292114
000060 1a b3 f4 3c c6 af b5 3d 23 ed cb 3d 88 46 b1 3c
       0.029870559 0.08871417 0.099573396 0.021640077
000070 9e 7d f3 bd 76 fe a0 bc 8d 58 89 bd 5a 76 c8 3b
       -0.11889194 -0.019652586 -0.06706343 0.006117624
000080 cf 28 d3 3c d8 15 fe 3d 84 7d 13 3d 60 1a 80 3d
       0.025776295 0.1240651 0.036008373 0.06255031
000090 6a fa da bc 80 02 02 3e 81 3d 32 3d a6 8e 02 3e
       -0.026730735 0.12696266 0.043515686 0.12749729
0000a0 37 73 8c bc af ed 4d 3d 07 c3 f7 3d bc a7 7e 3d
       -0.017144782 0.0502755 0.120977454 0.062171683
0000b0 2b 73 c6 3c 7c d0 bb bb 32 b0 c6 3a f6 29 cc 3d
       0.024224838 -0.0057316404 0.0015158711 0.09968941
0000c0 d6 a5 f1 3d c9 df 74 bd d4 9e d5 3d e3 f5 31 3e
       0.11799209 -0.05978373 0.10430685 0.17378955
0000d0 d4 74 39 3d 84 10 a8 3d db 25 72 bd d4 c6 0a 3d
       0.04527743 0.08206275 -0.059118133 0.033881024
0000e0 e4 50 81 bd 43 0a c5 3d 42 d5 33 ba aa 3d 49 3d
       -0.06314257 0.09621098 -0.0006860086 0.049131073
0000f0 bf 2e 4c bd e7 fc 73 bd cf 30 20 3e 4e 5f e1 3d
       -0.049849268 -0.05956736 0.15643619 0.11004506
000100 d5 22 ce 3c 14 6b fe 3d 06 f2 70 3d de 8d 79 bd
       0.025163094 0.12422767 0.05882456 -0.06092631
000110 ff 99 65 3b 8c 83 ce 3d ee 81 f5 3c 23 96 b0 bc
       0.0035034416 0.10083684 0.029969182 -0.021555966
000120 5f 7f b0 3d 07 52 67 bb 27 37 67 bd a8 6b df bc
       0.08618044 -0.0035296695 -0.05644908 -0.027273014
000130 d5 5c 74 bd ca 11 80 bd 63 e3 52 bd 9b 5e 07 3d
       -0.059658844 -0.06253393 -0.051486384 0.033049207
000140 2c 5c a7 3b d6 d3 26 3e 51 b9 bc 3d 23 41 e5 3c
       0.0051074233 0.16291746 0.09215034 0.027985161
000150 82 09 d6 3d 9b 3c 69 b9 4b 83 e0 bd 67 03 a3 3d
       0.10451032 -0.00022243189 -0.10962542 0.07959633
000160 bc 9c 2e 3d dd e7 cc 3d 5c b7 d2 3c bd b7 be 3d
       0.042629942 0.10005162 0.025722198 0.09312389
000170 f5 11 c9 3d 17 1f 33 3e 5c 77 5b 3d ab f5 f3 3d
       0.09817878 0.17492329 0.053580627 0.11912092
000180 81 cd 90 bd fc 2b c5 3d d6 04 58 3c 1c b2 cb 3d
       -0.07070447 0.0962753 0.013184747 0.09946081
000190 d3 6d d9 3d 13 4e 21 3e f2 13 e6 3d 71 7a 1b bd
       0.106166504 0.15752439 0.11234273 -0.037958566
0001a0 d3 31 76 bd 7d c0 82 bb fe 2f 29 bd ca 91 ff 3d
       -0.06010611 -0.0039902315 -0.041305535 0.12478979
0001b0 91 2b 27 bd 39 53 11 bd 20 f4 4b 3d 73 d8 51 3e
       -0.040813033 -0.035479758 0.049793363 0.20492725
0001c0 4c 2b 12 bb 64 1c e6 bc 84 85 5b 3d cf 62 53 3d
       -0.002230364 -0.02808971 0.053594127 0.051607903
0001d0 ab d4 26 bd 80 81 3f bc 1f d6 c5 bc 02 3f 1b 3e
       -0.04073016 -0.01168859 -0.024149952 0.15160754
0001e0 63 f2 81 3d eb 54 90 bc c1 96 f4 3c e1 cb d6 bc
       0.0634506 -0.017618617 0.029857041 -0.026220264
0001f0 e3 78 23 3d 56 73 22 3d 34 42 0d 3e ec 38 d7 bd
       0.03991021 0.039660774 0.13794786 -0.10508904
000200 d9 26 7f 3d 52 7a 9a bc 75 21 7b bc 5b d9 aa bd
       0.062292907 -0.018857155 -0.015327801 -0.083422385
000210 38 aa 98 3d 76 88 82 bd ea 39 7e 3c 72 48 17 bc
       0.07454342 -0.06373684 0.0155167375 -0.009233581
000220 4d 52 f9 bd 42 ed 7c bd 22 24 a9 bd 23 13 ff bd
       -0.12173901 -0.061749704 -0.08258845 -0.12454822
000230 85 a2 74 bd 8b 0b 87 3d f3 f5 04 bd 07 82 6e bd
       -0.059725303 0.065939985 -0.032461118 -0.058229472
000240 18 9c 1c be 5f 74 14 bc fb 77 eb bd fb 82 bf bc
       -0.1529392 -0.009060948 -0.11497494 -0.023377886
000250 3c 5d ab 3d 3f cf 09 bd 2e cc 8e 3d e8 91 08 bd
       0.083673924 -0.03364491 0.06972538 -0.033342272
000260 45 7e 82 bd 77 e2 c5 bd 39 77 86 3d bc fe 0f 3d
       -0.0637174 -0.09662335 0.06565709 0.035155043
000270 3e 31 89 bd 20 e0 f8 bb 83 63 04 3e 81 e1 ad bd
       -0.06698845 -0.007595077 0.12928586 -0.08490277
000280 c2 ae 18 bd 36 4a 04 3e 30 b5 91 3d 1e 0a c8 3c
       -0.037276037 0.12918934 0.07114637 0.024418887
000290 fa 74 36 3d f5 51 9a 3d 5e 8a 5e 3d 53 6d 1e be
       0.04454515 0.07535163 0.054331176 -0.15471391
0002a0 9c 98 19 bd ac 56 10 bd 68 f6 3e bd 4b 39 bd 3d
       -0.037499055 -0.035238907 -0.04662171 0.092394434
0002b0 a1 ab eb 3d 3f 2b 52 bd b2 14 07 bd b7 a0 19 3e
       0.11507345 -0.051310774 -0.03297872 0.15002714
0002c0 5c 7f 01 3e 98 01 56 bd 33 91 52 3d ae 98 a1 3c
       0.1264624 -0.052247614 0.051408004 0.019726124
0002d0 c9 c8 98 3d 71 cd 08 3e 9e 47 4c 3d dc fc f1 3b
       0.07460172 0.1335962 0.049872987 0.0073848795
0002e0 b1 46 b2 bd d2 ed c9 bd 4b a1 84 bd e0 f5 64 3d
       -0.087048896 -0.09859814 -0.06476077 0.055898547
0002f0 e6 5a a0 bc df ea 68 3d da 97 cb bd e5 e9 09 3e
       -0.019574594 0.056864616 -0.09941073 0.1346813
000300 8f 3e 2f 3e 0b 55 99 3d d9 0d ff bb 86 3b 98 bc
       0.17113708 0.07486924 -0.007783633 -0.01858307
000310 01 26 8c 3d 13 31 12 3e 17 2e 09 3e 98 13 5d 3c
       0.06843186 0.14276533 0.13396488 0.013493441
000320 ea ce 7c bd 8e 43 5b bd f2 67 61 3d 34 80 16 3e
       -0.061720766 -0.053531222 0.05503077 0.14697343
000330 ef d7 9f 3d e3 b2 a8 3d 0a 31 0b 3c 2e 00 8c 3d
       0.07804858 0.08237245 0.008495579 0.06835972
000340 5b 33 01 bd ea a2 98 bd e3 bc 0c bd a4 e1 28 3e
       -0.031543117 -0.074529484 -0.034359824 0.16492325
000350 91 b3 41 3c bc 46 b6 bd 33 b6 f4 bd 85 4f 26 3e
       0.011822597 -0.0890021 -0.11948814 0.16241272
000360 77 ed 0f 3e fd 56 2e 3e e0 e9 39 bd bc 02 68 3d
       0.1405543 0.17025371 -0.045389056 0.056643233
000370 5b 7a 86 3d 12 d3 67 3d bc c6 88 3d 2d ff 90 3d
       0.06566306 0.056597777 0.066785306 0.07079921
000380 b9 60 87 3d 39 ad 52 3e da f3 99 3c cb d6 16 3e
       0.06610245 0.20573892 0.018793035 0.14730375
000390 1d 08 e6 3d 4e 9b f3 3d c1 65 24 3e 0b 63 d1 3d
       0.11232016 0.118948564 0.16054441 0.10223969
0003a0 18 02 27 3e 29 f4 63 bd 26 cc 1e 3d a6 a1 96 bc
       0.16309392 -0.05565277 0.03876891 -0.018387627
0003b0 c3 ba 8f 3d 83 7f 87 3d a2 29 b0 3d 1c 7a 5f 3c
       0.07018044 0.06616118 0.08601691 0.013639953
0003c0 f2 36 1e bd 86 f3 88 bd 28 41 8e 3d 24 9f 30 bd
       -0.03862662 -0.066870734 0.06946021 -0.04312052
0003d0 b3 67 25 bd 05 5f f9 bc e1 8f 39 3e cc 48 94 3d
       -0.0403821 -0.030440817 0.18121292 0.072404474
0003e0 02 a5 cd 3a d3 45 24 3e 8c 3a da 3d 17 07 b9 bd
       0.0015689435 0.16042261 0.10655698 -0.090345554
0003f0 3c 87 db 3c 3f 35 c9 bc 78 43 81 3d 68 9c 57 3d
       0.026797883 -0.024561523 0.06311697 0.052639395

lstm.bias_hh_l0 f4 [256]
000000 8b 0c e7 3d 43 66 d1 3d cc 29 0b 3e db 56 a3 bb
       0.11281689 0.10224583 0.13590163 -0.004984719
000010 78 50 bb 3c 76 60 22 bb aa a0 a0 3d da 02 64 bc
       0.022865519 -0.0024776733 0.07843144 -0.0139166955
000020 1a a0 c2 3d bc d6 92 bd 29 4b ab 3d 35 ce 86 3d
       0.09503193 -0.071698636 0.08363945 0.065822996
000030 ca 7f 87 3d 9b 51 e1 3d a9 1e 39 3e 0f 0b b0 bd
       0.06616171 0.11001893 0.18078102 -0.08595859
000040 da 91 1a bd 4d a2 b5 3d fd 82 bd 3d e7 bb aa 3d
       -0.03773675 0.08868847 0.092535 0.08336621
000050 e2 8b a6 3d ab e5 c0 bd 17 cf f1 bc 4d 97 bc bc
       0.08132149 -0.09418806 -0.029517693 -0.023021365
000060 e4 9e fa 3d f1 af bd 3d ae 9b 70 3d 66 c9 68 3d
       0.12237337 0.09262074 0.058742218 0.056832694
000070 16 a8 ca 3d 2d c0 5a 3d b7 6a cd 3d bd f7 9a bc
       0.09895341 0.05340593 0.1003012 -0.018916959
000080 be c8 9b bd 53 dc 1b 3e 03 c3 9b 3d 6b f9 cd bc
       -0.07606648 0.15220766 0.07605555 -0.025143346
000090 28 19 ae bd a7 de 05 3e 03 c7 ba 3c 23 e9 35 3c
       -0.08500892 0.13073216 0.022799974 0.011102947
0000a0 54 26 de 3b 45 5d ad bd ef 84 1f 3e 39 3a 10 3e
       0.0067794714 -0.084650554 0.15578054 0.1408471
0000b0 79 41 ba bd 5b 41 d0 3d ae a9 40 bd 90 70 39 3e
       -0.09094519 0.101687156 -0.04703682 0.18109345
0000c0 20 c7 5c 3d ba b0 8f 3b 36 ee 9d 3d 10 63 2a 3e
       0.053900838 0.004385081 0.07711451 0.16639352
0000d0 92 f3 2f bd 79 3b 63 3d 73 eb ba 3d 17 c9 ef 3d
       -0.042956896 0.05547664 0.091269396 0.11708277
0000e0 fd 44 ae 3c d6 06 11 3e f4 78 a8 3d b6 4e 00 3e
       0.02127313 0.14162764 0.08226195 0.12530026
0000f0 1b 02 66 3c fc b4 af bd 2a 19 b2 3d aa b8 a5 bd
       0.014038588 -0.08579442 0.08696206 -0.080918625
000100 57 b1 e7 3d 99 df 42 3d 61 f6 8c bd 17 10 6f bc
       0.11313122 0.04757652 -0.068829305 -0.014591238
000110 7e 62 d9 3c 4c e2 6a 3c ac 7a 04 3e ef 3b 5e 3d
       0.026536223 0.01433618 0.1293742 0.054256376
000120 a8 c0 7f 3c d4 56 5c bd 62 3c ee 3c 80 ba b1 bc
       0.015609898 -0.053793743 0.029081527 -0.021695375
000130 13 e7 03 bd 9e ff 19 3d cd 10 c6 bc 6f a5 9f 3d
       -0.03220279 0.03759729 -0.024177933 0.07795226
000140 69 a3 c3 3d 9d 15 03 3e 7b 4b 8e bc 32 0d 8d bd
       0.095526524 0.12801214 -0.017369976 -0.068872824
000150 cf 55 10 3e 8a 79 3b bd 0f 19 be bd db 27 5d 3d
       0.14095233 -0.045770206 -0.09282123 0.053993087
000160 3f 1f bc 3b 93 8d 3e 3d 1e 77 e3 3c 38 93 fb 3d
       0.0057410295 0.046521734 0.02776676 0.12283939
000170 17 e8 d5 bd f2 14 cf bc 69 6f 0e 3c 5e 90 af bc
       -0.10444658 -0.025278542 0.008693554 -0.021431144
000180 50 2d 58 3d 7a 4c d5 3d d2 f2 e3 3d fe 03 d6 3d
       0.05277759 0.10414977 0.11130299 0.1044998
000190 33 26 7d 3d e3 2c 9e 3d ba e0 cf bc 97 42 16 3e
       0.061804008 0.07723405 -0.025375713 0.1467384
0001a0 96 f3 d1 3d 27 ec 0c 3e 58 ed 0a bd be 81 c4 3d
       0.102515385 0.1376196 -0.033917755 0.09595059
0001b0 0d d9 ac bd 0d bd ec bc 99 e5 eb 3d 33 70 36 3e
       -0.08439837 -0.02889874 0.11518402 0.17816238
0001c0 44 88 f1 bc 37 22 93 3d 96 11 87 3d ed 1d 31 3d
       -0.029483922 0.0718426 0.06595151 0.04324143
0001d0 4a 96 82 3b b4 1c ee 3d 96 8e bd 3d 72 86 35 bb
       0.003985201 0.116265684 0.09255712 -0.0027698544
0001e0 bb 17 c6 ba 7f 5b 2a bd 02 96 bc 3a 37 18 ed 3d
       -0.0015113273 -0.041591164 0.0014387968 0.11576884
0001f0 eb 33 ce bd e8 ab de bd 45 03 63 3d 32 6e 94 3d
       -0.10068496 -0.10872632 0.05542304 0.072475806
000200 1f 90 de 3d 36 78 89 3d 67 37 1d 3d 61 ba 91 3d
       0.10867333 0.067123815 0.038382914 0.07115627
000210 40 e2 af 3c f0 1f 2f 3b 58 79 05 be 35 3a 04 be
       0.02147019 0.0026721917 -0.1303457 -0.12912829
000220 04 8b 80 3d 2f c5 f6 3c dc a6 dc bd d7 f4 0c be
       0.06276515 0.030123321 -0.107740134 -0.13765274
000230 db dd e7 bc c2 c0 69 3c 6d 5c 7f bd 1b 76 c9 3d
       -0.028304031 0.014267148 -0.062344003 0.0983698
000240 5d 69 15 be d1 d8 0d 3e b1 08 0c bd f6 38 14 3e
       -0.14590974 0.1385224 -0.034187976 0.14474854
000250 96 6c 1c be b2 0d 88 3d e0 12 5d 3d 26 57 ae bd
       -0.15275797 0.06643237 0.05397308 -0.08512716
000260 13 be fa 3d 00 dd a2 bc ca c2 98 bd 6d 7e e3 3d
       0.12243285 -0.019880772 -0.07459028 0.11108098
000270 a2 f4 8b bd 63 43 a2 bd 5a 75 71 3a 65 3d be 3d
       -0.068337694 -0.07923009 0.0009210907 0.09289054
000280 73 00 c7 3b 0e f6 07 3c f7 3e 06 3d 6c 70 25 bd
       0.0060730516 0.00829841 0.03277489 -0.040390417
000290 46 df 37 3d c5 c6 5e bd 79 0d ce bd 58 e6 7e 3d
       0.044890665 -0.05438878 -0.100611635 0.06223139
0002a0 65 56 8d 3c 15 8a 98 bc b7 26 05 3d a1 7e 0f 3e
       0.01725311 -0.01862053 0.032507624 0.14013149
0002b0 85 22 db bd b3 e7 43 3d 16 a5 11 be ed c1 2e 3d
       -0.106999435 0.047828387 -0.14223132 0.04266541
0002c0 82 e8 94 bd b5 44 94 bd e1 d0 7e 3d c1 70 05 3e
       -0.0727091 -0.07239667 0.06221092 0.13031293
0002d0 62 df 26 be 19 dc 1e 3e 28 fa 9c bc aa 08 10 be
       -0.16296151 0.15513648 -0.019162253 -0.14065805
0002e0 4b 36 86 bd 74 db b1 3d b6 fc cb bd 15 be da bd
       -0.06553324 0.086844355 -0.0996031 -0.106807865
0002f0 6c 42 06 3d 2e 25 51 bd b4 56 fd 3c da 45 cf bd
       0.03277819 -0.051060848 0.030925132 -0.10120745
000300 92 e5 ce 3d 71 8a 9a 3d 9c 30 a7 bd 7e 85 dc 3c
       0.10102381 0.07545937 -0.081635684 0.026919123
000310 de 3e 39 bd 35 c0 d2 3d e1 82 44 bd 82 fe 49 3c
       -0.04522597 0.10290567 -0.04797638 0.012328746
000320 e4 bd 40 bc 9e 69 d4 bc 8a d0 7a 3d 4a 52 26 3e
       -0.011764023 -0.025929268 0.061234035 0.16242328
000330 a8 87 b5 bc d6 21 12 3d d8 5f 87 3d d4 3d bd bd
       -0.022159413 0.0356768 0.066100776 -0.092403084
000340 21 67 25 3e b2 19 b8 bc 07 fb 79 bd 6f 0b d7 3d
       0.16152622 -0.02247319 -0.061030414 0.10500228
000350 9e f7 8a 3d d0 2c c5 bd bf 3a cd bb bd e2 aa 3d
       0.067855105 -0.09627688 -0.0062631066 0.08344028
000360 29 79 02 bd fd 1e e8 3c 1b ea af 3d 9a b6 08 bc
       -0.03185383 0.028335089 0.08589574 -0.008344317
000370 f6 4e 85 bb 2b e6 0d 3e 5b 17 11 3e 66 4f 12 3e
       -0.004068251 0.13857333 0.14169066 0.142881
000380 a7 43 ac 3c f9 e7 15 3d 09 db 23 3d a7 d9 8d 3d
       0.021028353 0.03659818 0.04000381 0.069262795
000390 22 a5 a2 3c 60 75 d7 3d 88 3d e6 3d cd 17 e6 3d
       0.019854132 0.105204344 0.11242205 0.112350084
0003a0 3c a9 44 3e 1b b1 30 bc 47 0f 54 3e 9b b0 22 3e
       0.19205183 -0.010784413 0.20708953 0.15887682
0003b0 57 7b 67 bd d4 e1 4a bd 8e 76 20 3e b9 b0 04 3e
       -0.05651411 -0.049531773 0.15670225 0.1295804
0003c0 66 bf 04 3e 28 33 11 3e 8c ae c4 3c 8f 4e c6 3d
       0.12963638 0.14179671 0.024009012 0.096829526
0003d0 b7 11 0f 3e 25 5e ba bc a7 7f 0b 3e 45 4d 48 3d
       0.13971601 -0.02274997 0.13622914 0.048901815
0003e0 fc 9d 14 3e b3 1b 33 bc d2 c7 05 3e 39 73 36 3d
       0.14513391 -0.010931897 0.13064507 0.04454348
0003f0 3b 79 2f bd 77 2d 5b bc 65 73 24 3e 2f 45 a0 3d
       -0.042840224 -0.013377539 0.16059645 0.07825696

lstm.weight_ih_l1 f4 [256, 64]
000000 d4 10 3e bd 26 96 9c 3d 8c a0 18 3e 8c 08 85 3c
       -0.046402767 0.07645826 0.14904994 0.016239427
000010 05 23 1b 3d d1 1c a9 bc d8 86 d8 bd 6d db 33 bc
       0.037875194 -0.020643624 -0.105725944 -0.010977608
000020 d5 e6 68 3c 77 92 f9 3c cd 35 70 bd 34 aa 01 be
       0.014215191 0.030465348 -0.05864506 -0.12662584
000030 d2 31 33 bd 2e fa 9b 3c 05 99 9e bc 43 60 f7 3b
       -0.043748684 0.019040193 -0.019360075 0.007549317
000040 54 ba f2 bd 3c 0a 17 3e 1c 4c 19 be 90 5d cb bc
       -0.118519455 0.14749998 -0.1497044 -0.024824888
000050 ea 8f f9 bb 45 14 fa 3d de c3 fa bd 96 76 f1 bc
       -0.007616033 0.12210897 -0.1224439 -0.029475491
000060 a8 96 6f bd b8 af a6 3d 9a 9d c7 3c bc be 04 3c
       -0.058493286 0.081389844 0.024367142 0.008102115
000070 84 00 8f bd 2a de 02 be c8 ac 13 bd 28 4f 6f 3d
       -0.0698252 -0.12780061 -0.03605345 0.0584251
000080 15 0f a8 bd 75 5a 0e bc 9c c9 9a 3d f4 11 16 3e
       -0.08206002 -0.008688559 0.07557985 0.14655286
000090 bb 71 05 bd 9b fa a7 bd b3 fe 99 3d ff fa 0b be
       -0.032579165 -0.08202096 0.07519283 -0.13669966
0000a0 3a 50 5e 3d e5 87 9d bd e9 0c 28 bd 19 1f 17 bd
       0.05427573 -0.076919354 -0.041027937 -0.03689489
0000b0 e7 7f 92 bd 69 24 8a 3d be 5d 83 bd f8 81 07 3e
       -0.07153302 0.06745226 -0.06414364 0.13233173
0000c0 78 65 cd bc 09 6e ab 3d b8 39 c6 bd 4d bf 79 bd
       -0.025072798 0.08370597 -0.09678978 -0.060973454
0000d0 a5 08 a8 3d c3 74 56 3d 42 fe 59 bc e9 f0 92 3d
       0.08204774 0.052357446 -0.013305249 0.07174856
0000e0 3b a5 cf 39 73 6a 6e 3d 3a a3 a3 bd 5f 6c e9 bc
       0.00039605223 0.058206987 -0.07990117 -0.028494058
0000f0 59 5e df bc f0 45 b7 bd bc 04 8d bd d5 ea 3b 3d
       -0.027266668 -0.089488864 -0.06885669 0.04587825
000100 4d 0e e6 bc fd 17 8f 3d e4 32 cb bc 3b 6c 32 bd
       -0.028082991 0.06986997 -0.02480454 -0.043560248
000110 4c 9a 2e 3c 77 48 02 be b4 e6 80 bd b1 67 bd bc
       0.010656904 -0.12722956 -0.06294003 -0.023120733
000120 fe e4 ec 3d fc 9a 8b 3b 75 53 b2 3d 43 92 a5 bd
       0.11567114 0.004260419 0.087073244 -0.08084538
000130 57 5b 73 3d df f1 b5 bd 83 02 cb bc 6a 5f b6 3d
       0.05941328 -0.08884024 -0.024781471 0.089049175
000140 46 4a c0 bc f7 00 3d bd ff 57 0b 3c c1 5c eb bc
       -0.023472916 -0.0461435 0.008504867 -0.028730752
000150 ec b9 5b bc 7a 8c f8 3c ed 0c ad bd c6 0b ae 3c
       -0.013411026 0.030340422 -0.08449731 0.021245848
000160 41 0c 80 3d 52 34 24 3d 58 94 e0 3d ef 34 b8 bc
       0.06252337 0.04008896 0.10965794 -0.022486178
000170 b9 13 eb 3d 57 96 80 bd a2 c6 73 bd 5e 5a fe 3d
       0.11478371 -0.06278675 -0.059515603 0.1241958
000180 e1 1c bc 3c a2 f0 8d bd 6c 29 cc bd 94 ff f5 3d
       0.02296299 -0.06930663 -0.09968838 0.12011638
000190 51 40 64 3d 3d 80 a9 bd 99 d0 04 be d3 8a b8 bd
       0.0557254 -0.08276413 -0.12970199 -0.090108536
0001a0 57 5e 01 bb 78 b0 80 3d 7c 64 82 bd a5 88 a7 3d
       -0.0019740069 0.06283659 -0.06366822 0.0818036
0001b0 4b 0b d0 3d 4a 10 11 bd 93 69 0a 3c cd 93 3e bd
       0.10158404 -0.035415925 0.008448022 -0.046527673
0001c0 40 91 8e bc 0d 54 69 bd c5 6c 8e bd 97 10 18 3c
       -0.017403245 -0.056964923 -0.0695434 0.009281299
0001d0 69 ef 67 3d 2b 65 b3 3d 2c fe 74 bd 09 60 05 3d
       0.056624804 0.08759531 -0.05981271 0.03256229
0001e0 c6 73 b0 bd 7b 16 75 bd 2f 3f 0b be ba f8 4e bd
       -0.08615832 -0.059835892 -0.13598321 -0.050530173
0001f0 44 1f 74 3d 4c 7e 60 bd b0 33 6c bd 1e d5 08 3e
       0.05960013 -0.054807946 -0.05766648 0.13362548
000200 b7 ea 5a bd 28 d9 6d bc a4 80 78 3d dd d6 46 3c
       -0.053446498 -0.014517106 0.060669556 0.012136188
000210 da e8 b5 3d 98 b1 07 bd 7d f5 00 be ea f0 27 bd
       0.088823035 -0.03312835 -0.12593646 -0.041001238
000220 6e af b6 3c 90 08 77 3c 39 e9 02 bd a5 2a ba 3d
       0.022300448 0.015077725 -0.0319607 0.09090165
000230 04 a3 17 3d 04 2c 60 bd 8d 2b 93 bd c3 b2 54 bd
       0.0370207 -0.054729477 -0.07186041 -0.051928293
000240 fb 03 fb bd e3 04 89 3d 70 65 48 3d c8 25 a4 bc
       -0.122566186 0.06690385 0.048924863 -0.020037547
000250 47 8c 15 3d 29 e5 66 bd ef 7b 9f 3d 2d 68 d6 bc
       0.036510732 -0.056370888 0.0778731 -0.026172722
000260 bb d9 23 bc b7 f7 e6 bc 67 f4 1c 3e f5 d4 15 bd
       -0.010000641 -0.028194292 0.15327607 -0.036580045
000270 3b 88 cd 3d 2d 11 d0 bc e2 d7 89 3d 41 b1 0e bd
       0.100357495 -0.025398815 0.067306295 -0.03483701
000280 f0 3f 0c be 7c 52 7c 3d f8 26 37 bd 61 d4 39 bd
       -0.13696265 0.0616021 -0.044714898 -0.045368556
000290 b9 a9 bc 3d 0c be b5 bd 29 91 44 bd 2c 11 b6 bd
       0.092120595 -0.08874139 -0.047989998 -0.08889994
0002a0 64 12 ca bc 63 65 55 bd f3 80 a3 3d 68 c6 71 3d
       -0.024666972 -0.052098643 0.079835795 0.059027106
0002b0 ac 61 ec bc 6c 46 0f 3e 26 c5 a4 bd 34 ae b7 bd
       -0.028855167 0.13991708 -0.080454156 -0.089687735
0002c0 87 01 c2 3d 0f 70 af bd 3f 2c 6c 3a 7c f9 82 bd
       0.094729476 -0.08566295 0.0009009279 -0.063952416
0002d0 9f e7 26 bc 27 c1 84 bd ee 1a 1b be a2 ae 80 3d
       -0.010187059 -0.064821534 -0.15146992 0.062833086
0002e0 dc 7f de bc ef 13 e6 bc f8 7b 6e 3d 63 14 9c 3c
       -0.027160577 -0.028085677 0.058223695 0.01905269
0002f0 80 1f 07 be 8d 44 ab 3b 0c 8e 8b bb 87 41 58 3d
       -0.1319561 0.0052266777 -0.0042588767 0.052796867
000300 6b e4 86 bd 76 9f 90 bd b6 6f 1f 3e ef 39 45 bd
       -0.06586536 -0.07061665 0.15569958 -0.048150953
000310 09 5e a1 3d 61 2a ac 3b e8 94 11 bb b8 27 46 bd
       0.07879264 0.0052540754 -0.0022214 -0.048377723
000320 ed a9 ad 3c d1 a6 3d bc c7 cd 17 be 29 3b 1f bd
       0.021199191 -0.011575417 -0.14824592 -0.03887478
000330 2f 10 44 bd be 33 c1 3d 01 50 9c bd 41 26 bc 3d
       -0.047866996 0.09433697 -0.07632447 0.09186984
000340 4b 89 98 bc d2 1f 09 3e ef 51 8e 3d b9 13 ef 3d
       -0.018620154 0.13391045 0.06949221 0.11673684
000350 83 e8 c2 3b ef 19 0c 3e 19 d5 e5 bd 78 4f 4f 3d
       0.0059481277 0.13681768 -0.11222286 0.050612897
000360 12 08 8c 3b fa 7f cc bb 3e 58 05 3e 15 a8 c0 3d
       0.004273423 -0.006240842 0.13021943 0.09407059
000370 b9 eb 79 3d f5 29 12 be 7d 72 04 3e ab 63 04 3e
       0.06101582 -0.14273818 0.12934299 0.12928645
000380 4a a1 ba bd 3a a8 15 3e b5 67 56 3c e2 1b 70 3d
       -0.09112795 0.14614955 0.013086249 0.05862034
000390 59 6c 7f 3d 29 38 6b 3b 2a d7 20 bd b9 c0 c0 bd
       0.062359188 0.0035891628 -0.039267696 -0.09411759
0003a0 a6 2f af bd 0e f8 07 3e f5 07 76 3d 86 44 9a bd
       -0.0855401 0.13278219 0.060066182 -0.07532601
0003b0 e3 20 79 bd b3 cd 09 3d 2d 7d a8 3d e2 45 81 bd
       -0.06082238 0.033643436 0.082270004 -0.06312157
0003c0 88 c3 1c bd af f0 8b bd ff c4 eb bd fd eb 3b bd
       -0.03827241 -0.06833016 -0.115121834 -0.045879353
0003d0 e7 2c 7b bd 21 7d ef 3d f4 f2 82 bc cd 11 6c bd
       -0.06132212 0.11693788 -0.01598499 -0.057634164
0003e0 a5 e1 84 bb a9 67 c1 3d 5b 53 11 be e9 47 4f 3d
       -0.0040552192 0.094436 -0.14191954 0.05060569
0003f0 b0 df a9 bd 23 b5 6a bd fd b3 3c bd f7 9a a1 3b
       -0.08294618 -0.05730165 -0.046070088 0.0049318033

lstm.weight_hh_l1 f4 [256, 64]
000000 8d 80 e5 bc 06 e3 03 3e 8a a4 10 3d 1d 9c 00 3e
       -0.0280154 0.12879571 0.035313167 0.12559552
000010 24 96 16 bd 1d bf 7a bd 7f 14 a1 bd fc 8d 11 be
       -0.03676428 -0.061217416 -0.078652374 -0.14214319
000020 48 4d f4 3b 24 ee bd 3c e4 e3 6a 3d c6 36 a9 bd
       0.0074555017 0.023184843 0.05734624 -0.082624
000030 af 00 9d 3d 9c 7f ed bc 3a 4d 10 3e f9 59 1b be
       0.07666146 -0.028991513 0.1409196 -0.1517104
000040 73 df 99 bd 12 e2 55 3d aa 45 7b 3d d4 5b e2 3d
       -0.07513323 0.05221755 0.061345734 0.11052671
000050 8e 85 13 be 7e 03 fa 3c 77 e2 60 bd 44 29 91 bd
       -0.14406416 0.030519243 -0.054903474 -0.07087949
000060 fe ec 61 3d 52 e9 90 bd ca 27 bc 3d 10 63 36 bd
       0.055157654 -0.07075752 0.09187277 -0.044528067
000070 f1 21 1b 3e 6e 64 83 3d a9 b2 a3 3d 79 2b df 3b
       0.15149666 0.0641564 0.07993061 0.0068106023
000080 a1 f5 da 3d c4 fe ca 3d 39 40 8d 3d bd 60 21 3e
       0.10691381 0.09911874 0.06897015 0.15759559
000090 55 f7 9f 3d af 48 ce 3d f1 c7 bf 3d 6b bd 94 bd
       0.07810847 0.10072457 0.09364308 -0.07262691
0000a0 34 4a 31 3d 9d b4 1e 3d 66 53 33 3d e2 e6 10 3e
       0.043283656 0.038746465 0.043780707 0.14150575
0000b0 41 ea e6 bc 5c a1 87 bd 84 0b 84 3d dd 38 46 bd
       -0.028187873 -0.06622574 0.06447509 -0.048394073
0000c0 44 6f 87 bc 1a 38 29 3e 4a cd 0f 3d ac 69 1a be
       -0.016532548 0.16525307 0.03510789 -0.15079373
0000d0 8e e6 61 bd d7 d6 dc bc 87 a4 17 bd d8 91 2e bd
       -0.055151515 -0.026957912 -0.03702214 -0.042619556
0000e0 48 19 0f 3b 35 7f 1d bd d3 62 c0 bd d2 bc 10 bd
       0.0021835137 -0.038451392 -0.09393849 -0.035336323
0000f0 98 52 19 be b0 18 e2 bd df a1 81 3b 42 c0 27 3d
       -0.14972913 -0.11039865 0.003956064 0.040954836
000100 b5 25 8a 3d 80 bf 9b bd 27 5c 8f 3d 30 7d b3 3d
       0.06745473 -0.07604885 0.069999985 0.08764112
000110 76 1f c0 bd c4 d8 56 bd 33 9f bc bd bf 04 01 3d
       -0.09381001 -0.052452818 -0.09210052 0.031498667
000120 7d 56 7f 3d a5 d8 c0 bc 8c b4 19 3c e3 82 ee bc
       0.06233834 -0.023540804 0.009381425 -0.029115146
000130 ab a3 23 3c 7f 2c 26 3b 62 39 10 3e a4 ad a5 3d
       0.009987752 0.0025356112 0.1408439 0.0808976
000140 77 b8 86 3d ad c8 8a 3c 6d 3e de bd 4b d5 0f 3d
       0.065781526 0.016941393 -0.108517505 0.03511552
000150 fc b6 04 be f3 9d 43 bd 72 8b 86 3d 04 b4 a2 bc
       -0.12960428 -0.047758054 0.06569566 -0.019861229
000160 a9 93 e9 bd bd f4 98 bd 4f f7 3b bd 93 b2 18 be
       -0.11405117 -0.07468555 -0.04589015 -0.1491187
000170 d9 18 98 bc 1a 9d dd 3b d6 18 d0 bd 39 2e ed 3d
       -0.018566536 0.0067631127 -0.10160987 0.11581082
000180 87 96 2d bd 0e 5f fb 3d 05 d4 a9 bd ae 41 17 3e
       -0.042379882 0.122739896 -0.08292393 0.14771149
000190 78 36 84 bd 62 dc 25 bc 6e 01 3e 3d 41 46 b6 3b
       -0.064557016 -0.010123344 0.046388082 0.005562574
0001a0 61 9e 9f 3d d7 20 ec 3d ce 5d c0 bd fd 01 0e 3c
       0.0779388 0.11529701 -0.09392892 0.008667466
0001b0 8e 9d e9 3c e0 ca a6 3d e0 53 2f 3d 67 29 e9 3c
       0.02851751 0.08144164 0.0428046 0.028462125
0001c0 73 ee a9 bd 62 30 26 3d b3 3e d6 bd da 0a ef bd
       -0.08297434 0.040573485 -0.10461178 -0.11671992
0001d0 cf a6 34 3d b1 d6 88 3d 20 34 e6 3c 38 b5 b0 bc
       0.044104394 0.06681574 0.028101027 -0.021570787
0001e0 c6 70 0d be aa 7f b4 3d 06 ca b8 bc ed ce 12 3e
       -0.13812551 0.088134125 -0.02255727 0.14336748
0001f0 bb de 46 bc 7d 30 bc bd b1 fa 68 bc 0d d6 29 3c
       -0.012138064 -0.09188936 -0.014219926 0.010365975
000200 86 9f b3 bd 00 5c 78 bd 4f b0 b6 3d bc 95 8c bd
       -0.08770661 -0.060634613 0.08920347 -0.06864497
000210 59 5c 8f 3c ac 23 00 be 15 6e d0 3d 58 2f cc bd
       0.01750009 -0.12513608 0.101772465 -0.099699676
000220 db 09 50 3d 0d cd 77 bd bf 74 c0 bc 1a 16 aa bd
       0.05079065 -0.060498286 -0.023493169 -0.08304997
000230 d4 36 a7 bd 59 a0 9b 3a cf 9b 0d 3e bb bd 92 3b
       -0.081647545 0.0011873349 0.13828968 0.004478184
000240 5b 1b 7e 3d 63 fc 5a 3d 36 90 38 bd f0 16 c5 bd
       0.062037807 0.05346335 -0.045059405 -0.096235156
000250 85 49 f9 bd f9 40 bf 3d da d3 f9 bc a2 8c f1 bc
       -0.12172226 0.093385644 -0.030496527 -0.029486004
000260 2b a2 b7 bd ef f7 b3 bd 21 19 b0 bd 3d 67 c8 bd
       -0.08966478 -0.08787524 -0.08598543 -0.09785316
000270 9a 03 df 3d 6a 60 b3 bc c2 d9 0a be 9e 85 29 bd
       0.10889359 -0.02189656 -0.1355963 -0.041387193
000280 e7 9b ba bd 7d 4a 74 3c 58 33 b2 3d 24 4e d1 3d
       -0.09111767 0.0149103375 0.08701199 0.10219982
000290 6a 1e c7 bd 67 fe 82 bb b4 33 95 3d 91 44 c9 3c
       -0.09722598 -0.0039976123 0.07285252 0.024568828
0002a0 13 2d 03 3e 5e 88 53 3d 09 13 67 bd 5e b8 e8 3d
       0.12810163 0.05164372 -0.056414638 0.1136329
0002b0 b4 7e b2 bc 6f b7 f5 bd ea f1 85 3d 86 3d bf bc
       -0.021788932 -0.11997878 0.06540282 -0.023344766
0002c0 31 73 14 3d 18 3a b1 bd 3c 11 bf 3c bb 2f 74 3d
       0.036242668 -0.08653659 0.023323648 0.05961583
0002d0 c0 ae b5 3d c0 ad 07 be f3 7c a6 bd 82 65 1f bd
       0.088712215 -0.13249874 -0.08129301 -0.038915165
0002e0 fa 01 1e be 57 fc 08 bb ff 84 5d 3d f9 36 58 bb
       -0.15430441 -0.002090236 0.054081913 -0.003299175
0002f0 4a 09 0e be af 94 86 ba 52 c4 33 3d d0 f5 e0 bd
       -0.13870731 -0.00102677 0.043888398 -0.10984385
000300 c9 15 5c 3d 02 81 11 bd 47 03 46 3d a3 92 88 bd
       0.053731713 -0.035523422 0.04834297 -0.06668594
000310 8e da 5f bd cc 01 b7 3c d0 0e 50 bc f4 30 5b b9
       -0.05465179 0.022339724 -0.012698844 -0.00020903704
000320 75 7f 91 3d 15 ea 0c be 45 9b ed bd 00 37 9e 3d
       0.071043886 -0.1376117 -0.11601881 0.07725334
000330 b5 c7 21 3d 95 29 04 bd 9f 87 06 3e 46 22 32 bd
       0.039497096 -0.03226622 0.13137673 -0.043489717
000340 e7 48 82 3d 8c 2c 8a 3d a1 c6 ae 3d 87 9e 6d 3d
       0.06361561 0.06746778 0.08533979 0.05801251
000350 c6 7d d2 bd e5 87 e6 bb 86 8a b7 3d de 6b 93 bd
       -0.10277896 -0.007035243 0.08961968 -0.071983084
000360 eb 2d 3f 3d d3 16 2f 3d c6 9e 7e bd f3 24 0f bd
       0.04667465 0.042746376 -0.062163137 -0.034947347
000370 fb 00 f1 3d 9a d4 47 bd c3 4c a2 bd 84 36 97 bd
       0.11767765 -0.048786737 -0.079247974 -0.07383445
000380 52 e8 15 3d b8 e2 b8 bd 21 c9 c4 bb e6 cf 29 bc
       0.03659851 -0.09027618 -0.0060054217 -0.010364508
000390 d1 2e a1 bc 63 07 e7 3d 03 15 8b bd ee 0d 38 3d
       -0.019675644 0.11280706 -0.06791117 0.04493516
0003a0 fd 29 aa 3d a3 1c 04 3e 10 16 b8 3d 2a 14 c8 bc
       0.0830879 0.12901549 0.08988583 -0.024423677
0003b0 a1 ab de 3c 5c 62 a7 bc 5d 62 d8 3c 46 7c b5 3d
       0.027181448 -0.020432644 0.02641409 0.08861594
0003c0 eb 3e 89 bd ba 46 87 bd c6 b4 87 3d b2 d6 8b bd
       -0.06701454 -0.06605287 0.06626277 -0.06828059
0003d0 2f ea ea 3a ae a7 18 bd 23 37 a9 3d 81 31 20 bd
       0.0017922575 -0.037269287 0.082624696 -0.03910971
0003e0 d7 33 b5 3d b9 14 62 3d f0 bf c0 3c 5f 24 1e 3d
       0.08847778 0.055195544 0.023529023 0.038608905
0003f0 66 55 12 be 78 0d 0b be e3 32 82 bd 61 7d 04 3d
       -0.1429039 -0.13579357 -0.06357362 0.032346133

lstm.bias_ih_l1 f4 [256]
000000 5b 73 bd bc b9 82 cf 3d 08 e9 8a 3d 02 c6 ee 3d
       -0.023126295 0.10132355 0.067827284 0.11658861
000010 e7 8c 67 bd 92 e0 a4 3d 6a ce 92 bd 25 d5 7b bd
       -0.05653086 0.08050646 -0.071682766 -0.061482567
000020 e6 4d b3 3c aa 9b b0 bd 14 6e 1f bb b3 4a be bd
       0.02188773 -0.086234406 -0.0024327086 -0.092915915
000030 f4 fa 42 3c 43 ad ac bd 9b 05 ff 3d b2 a3 e8 3d
       0.011900652 -0.084314846 0.12452241 0.113593474
000040 72 d6 7a bd 5d bb fc bc f8 02 b1 bd 8b 0c 6c 3d
       -0.061239667 -0.03085106 -0.08643144 0.05762915
000050 9d 9f e4 3c 77 63 bf 3d 28 95 72 bc 01 4b 2a 3d
       0.02790814 0.09345143 -0.014806069 0.041575436
000060 96 b4 e1 bc 14 a1 22 bd 1a 38 85 3c cf 20 9b bd
       -0.02755193 -0.039704397 0.016262103 -0.07574617
000070 cb f6 1c bd ec 79 cf bc 3c e2 7c bd 18 a8 a2 3d
       -0.038321298 -0.025326692 -0.06173919 0.079422176
000080 6d 8e 0d 3e 27 ec 5f bc 5d af 8c 3d 83 99 55 bc
       0.13823862 -0.013667143 0.068693854 -0.013037088
000090 16 0a 82 3d 8f a2 4d 3d f9 aa ec 3d 54 20 de 3c
       0.0634958 0.050203856 0.11556048 0.027115025
0000a0 02 b5 c5 bd 8e f6 85 bd db 2c ab 3d 84 f9 8d 3d
       -0.09653665 -0.06541167 0.08358165 0.06932357
0000b0 33 55 7f 3d 55 ef 85 ba de 7c 8a 3d 42 17 33 3d
       0.06233711 -0.0010218421 0.06762098 0.043723352
0000c0 58 e4 cd bb e6 03 d8 3c e6 cc a0 3d eb 18 93 bd
       -0.006283324 0.026369046 0.07851581 -0.07182487
0000d0 e5 62 a0 bc ab 46 f9 bc 30 ac 37 3c 25 b7 d6 3d
       -0.019578407 -0.030429205 0.011210486 0.10484151
0000e0 eb 0d 29 bd 86 51 02 bd 2f 59 f8 3c 9b c6 8a 3d
       -0.04127304 -0.031816028 0.030315964 0.06776162
0000f0 2f ca 25 3b 58 29 d9 bc b1 b8 8b 3d 8f 6a 1d 3e
       0.0025297513 -0.026508972 0.068223365 0.1537268
000100 cf 37 98 bd 77 09 12 bb 47 07 e7 3b d2 53 bd bd
       -0.0743252 -0.0022283474 0.007050428 -0.09244503
000110 21 e5 8d 3c 07 2d 56 bb d8 6a c1 3d 6a c7 f2 3d
       0.017321171 -0.0032680647 0.09444207 0.118544415
000120 21 ba 08 3e 96 a8 53 3d 9b a5 6f 3d 8b 33 69 3d
       0.13352253 0.051674448 0.058507543 0.05693392
000130 6f e0 c7 3d cc e9 80 3d 68 ab fc 3c 91 6f bf 3b
       0.09759604 0.06294593 0.030843452 0.005842157
000140 76 b7 0c 3e 03 9d df 3d 20 34 2f 3d 8f 2c c0 bd
       0.1374186 0.109186195 0.04277432 -0.09383499
000150 29 e9 e1 3c af 05 6d 3c ac 00 82 3d cb df d6 bb
       0.027577 0.014466687 0.063477844 -0.00655744
000160 34 0e 00 3d 2b 50 ea 3d 76 a3 12 3e 88 7e e4 3d
       0.031263545 0.11441072 0.14320168 0.111569464
000170 52 06 18 3e 62 81 ba 3d 25 46 10 3e e3 d2 b0 3d
       0.14846161 0.09106709 0.14089258 0.086339734
000180 78 15 01 bd 88 aa eb 3d 70 2b 6b bc 54 09 96 bd
       -0.031514615 0.11507136 -0.014353618 -0.07325998
000190 1f 5a b8 3d 03 3c 89 bd 8f 0c 39 bd 14 cb cb 3d
       0.09001564 -0.067008995 -0.045177992 0.099508435
0001a0 7f b4 0f 3e 16 27 ca 3c 19 38 f8 bc 4b e2 5e bd
       0.14033698 0.02467684 -0.030300187 -0.05441503
0001b0 60 fa 06 3d 65 18 1c bc 0e 3d 45 bd 77 7a f9 3d
       0.03295362 -0.0095273005 -0.04815393 0.121815614
0001c0 95 b3 1b bd b5 58 91 3d d7 72 ec 3d ee 63 89 bd
       -0.03801306 0.07096998 0.115453415 -0.06708513
0001d0 79 2c 81 3c 44 83 0b 3e 7e cb 9f 3c 11 51 c6 bb
       0.015768277 0.13624293 0.019506212 -0.0060521443
0001e0 e6 a8 fd 3d d1 c1 bc 3d 52 6c 13 3e c1 1d 22 3d
       0.123857304 0.09216655 0.1439679 0.039579157
0001f0 ef 76 3f 3d ef 4f 24 bd 23 fb fe 3d 9a 4b 67 bc
       0.046744283 -0.040115293 0.12450244 -0.014117146
000200 8a 9b 4a bd c3 b0 b3 bd a3 74 34 3c 7c 36 05 3c
       -0.04946474 -0.08773949 0.0110141365 0.008130666
000210 c3 d7 97 3c c1 fc 91 3d 31 84 fb bd a3 fa 70 bd
       0.0185355 0.07128287 -0.12281073 -0.058832776
000220 b4 29 f3 bd 17 d6 62 3d 6d 26 e4 bd 37 aa 0f 3d
       -0.118731886 0.055379953 -0.11140142 0.03507444
000230 98 f5 af 3d b1 4b 1c 3e d6 a3 13 3e ab 22 4b 3d
       0.08591765 0.15263249 0.14417967 0.04959361
000240 eb cb 65 3c 4a 68 8a bd c5 60 13 be 0c 3b 25 3d
       0.014025669 -0.06758173 -0.14392383 0.040339515
000250 8a e7 ca bc 0a 24 16 3e af 59 ac 3d 28 77 fa 3c
       -0.02476861 0.14662185 0.08415543 0.030574396
000260 3f bf ab bd 14 1c e6 bd 7d a0 56 3d 42 a4 c4 3c
       -0.08386087 -0.11235824 0.052399147 0.024004105
000270 dc 5a b3 bd f1 20 9b bd ce ed 9e 3d cc e0 5e bc
       -0.087575644 -0.075746424 0.077602014 -0.0136034
000280 92 2e 6a 3d 17 f2 f2 3d e2 ed e6 3c 22 ae 47 3d
       0.05717332 0.11862581 0.028189603 0.04875005
000290 1f c2 8e 3d 59 8b 09 3e fd 6d da bd 59 19 85 3d
       0.069706194 0.13432063 -0.1066551 0.06498975
0002a0 9e c7 b2 3c 04 56 8e bc f7 41 0b 3e c0 30 87 3d
       0.0218237 -0.017375 0.13599382 0.06601095
0002b0 4f d4 13 3d 80 04 d0 bd fd ca 8b bb 16 0a fd 3d
       0.036091145 -0.10157108 -0.0042661414 0.12355439
0002c0 f0 70 fd 3d 86 9e 09 bc 8e 3e f9 bd b3 d1 81 bb
       0.12375057 -0.008399611 -0.121701345 -0.0039617657
0002d0 ee 70 3f bd e8 bb fa bd 05 b5 49 3a 8b 3c f1 3c
       -0.046738558 -0.122428715 0.00076945155 0.029447814
0002e0 59 54 ff bd 64 94 d6 bd 57 29 17 be b0 93 eb 3d
       -0.1246726 -0.10477522 -0.14761864 0.115027785
0002f0 82 a1 18 be 78 6b 81 3c 8f ee 48 bc 29 46 33 3d
       -0.1490536 0.015798315 -0.012263908 0.04376808
000300 db eb b9 3d 74 16 cd 3d 55 2a 9d 3d 8c 4c 29 3e
       0.09078189 0.10014048 0.0767409 0.16533107
000310 66 d0 fd 3b aa bb 0b bd 90 02 12 bd e5 45 21 3e
       0.0077457903 -0.034114517 -0.035646975 0.15749319
000320 63 dd ab 3d ce f0 e5 3d 2b 85 2f bd 60 d3 85 bd
       0.083918355 0.112275705 -0.04285161 -0.06534457
000330 93 10 81 bd 95 85 70 3d c4 52 13 3e 51 97 92 3c
       -0.063019894 0.058721144 0.14387041 0.017894419
000340 c3 11 01 3e 49 c3 7d bc 9b 7e fd 3d 18 a4 ae 3c
       0.12604432 -0.015488454 0.12377664 0.02131848
000350 ad 47 90 bc 2a cc 88 bd 99 03 0e bd 0b 86 17 3c
       -0.017612303 -0.06679566 -0.0346714 0.009248267
000360 7a 84 5e bd ec 80 7a bd e2 3e 51 3c 89 86 02 3e
       -0.05432556 -0.061158106 0.01277134 0.12746634
000370 79 64 27 bd 23 3b 0d 3e 5c 16 21 3d 11 01 08 bc
       -0.040867303 0.1379209 0.039327964 -0.0083010355
000380 0b 9a c0 3c 8d 27 09 3e 73 2f 3f 3d 9a c5 71 3c
       0.023510953 0.13393994 0.04667611 0.014756585
000390 5d 91 2f 3e 9b d4 0e 3e 04 bb 14 3e 03 66 28 3e
       0.17145295 0.1394829 0.14524466 0.16445164
0003a0 93 10 07 3e 7d f2 46 3d 0a 54 dc 3d 10 9f f8 3d
       0.13189916 0.0485711 0.10758217 0.12139714
0003b0 46 d5 5d 3c b3 b1 1a 3d 21 79 3b 3b c6 40 a0 bd
       0.013539618 0.037767123 0.0028606134 -0.078248546
0003c0 6d d3 0c 3e cf 60 22 bd b3 45 81 3d 34 67 3c 3d
       0.13752528 -0.039643105 0.06312122 0.04599686
0003d0 e7 43 2e 3e ba 93 97 bb bc 54 f4 3c b5 52 97 bd
       0.1701809 -0.0046257647 0.02982556 -0.07388822
0003e0 44 a7 c7 3c 39 3a eb 3d 7a f2 d9 3d a3 8e a6 3c
       0.02437175 0.114857145 0.10641952 0.020331686
0003f0 21 d9 29 3e 85 93 c2 3d 45 5b 47 bd 99 3e 09 3e
       0.16586734 0.09500793 -0.048671026 0.13402785
