models/lstm.pt (torch, 214933 bytes, 10 tensors)

lstm.weight_ih_l0 f4 [256, 3]
000000 c6 55 3c 3d f8 2b a1 bc f8 7e bc 3c 7d 9b 04 bc
       0.045980237 -0.019674286 0.023009762 -0.008093712
000010 32 04 af 3d 96 0f ab bd 5d 4e 0a bc f0 3a c4 3d
       0.08545722 -0.08352582 -0.008441535 0.09581554
000020 46 02 94 3d 95 8b 46 bb 30 e2 9a 3c 60 77 25 3d
       0.07226996 -0.00302956 0.018906683 0.040397048
000030 9f 0c b8 bc 3e c2 a4 bd a2 e3 9c 3d 03 1f a4 3d
       -0.022466956 -0.08044861 0.07660605 0.080137275
000040 80 31 72 bb 70 a7 aa 3c 38 53 75 bc 30 e8 81 3d
       -0.0036955774 0.020831794 -0.014973454 0.063431144
000050 14 01 e2 bd 1d e8 f8 bb 2a 30 9e 3d 68 f6 ba bd
       -0.11035362 -0.0075960294 0.0772403 -0.091290295
000060 c9 78 17 bd 00 8e 48 3a 7c c7 65 3d 4b 70 ac 3d
       -0.036980424 0.0007650554 0.056098446 0.08419856
000070 70 41 ef bc 64 42 68 3d 22 7d 00 3e bc 8b ac bd
       -0.029206008 0.05670394 0.12547734 -0.0842509
000080 00 44 97 39 bb c7 05 bd 40 f0 67 3d 48 4b c0 bc
       0.00028851628 -0.03266118 0.056625605 -0.023473397
000090 e4 79 9f 3d 00 2a 93 bb 20 67 86 bd 0a 6f a3 bc
       0.07786921 -0.004491091 -0.06562638 -0.019950408
0000a0 d6 fb ac bd fc 38 f4 bd 55 7c d1 3d 50 fe 97 bc
       -0.084464714 -0.119249314 0.102287926 -0.018553883
0000b0 48 1c e4 bd 16 bd a0 3d d6 0c bf bd dc f9 f0 3d
       -0.11138207 0.07848565 -0.0932862 0.11766407
0000c0 1d 88 1c 3d 14 cb ed bd 5c f5 59 3d f0 ed 6a 3d
       0.038215745 -0.11611 0.05321251 0.05735582
0000d0 86 3f c3 bd 92 f2 b6 bd 18 1c fc bc ce fa d3 bd
       -0.095336005 -0.08932985 -0.030775115 -0.103505716
0000e0 00 ce 29 3d 67 43 cd bc 60 67 f6 3c 2a 8f ce 3d
       0.041456223 -0.025056554 0.03007859 0.100859
0000f0 06 25 b0 3b a0 c9 04 3d 00 2c 35 3c 56 62 02 3e
       0.0053755073 0.032418847 0.011057854 0.12732825
000100 f0 a8 cc 3c a0 fa 81 bd ec b4 8e bc 50 cd d4 bd
       0.0249829 -0.06346631 -0.017420255 -0.10390723
000110 92 51 fa 3d b9 26 85 3d 74 74 ee 3d b0 25 bd 3d
       0.122225896 0.065015264 0.116433054 0.09235704
000120 f2 cb c0 3c e8 65 ac 3d 20 bb 5a bd f0 9b f6 3c
       0.023534749 0.084178746 -0.053401113 0.030103654
000130 88 41 6f 3d d4 f4 71 bd 17 8d 1a bc 96 bc f7 bd
       0.058412105 -0.059071377 -0.0094330525 -0.12096517
000140 40 91 50 bd 47 16 08 3d ae f6 c5 bd 00 fd fb bc
       -0.05091977 0.03322437 -0.09666191 -0.030760288
000150 e4 c3 f2 3b 1c 84 97 3d ee 1d d2 bd 8d ac 8f 3d
       0.007408606 0.07398245 -0.10259615 0.07015333
000160 a0 e0 ae 3b 00 9c 8d ba 9c da 9a 3c c0 3d fb bd
       0.005336836 -0.0010803938 0.01890307 -0.12267637
000170 1a 14 f8 3d 80 3a 97 3c 42 d3 91 bd 1c 39 16 bd
       0.12113209 0.018460512 -0.07120372 -0.036675557
000180 cf 85 44 3a 6c fd 99 3d 70 ff 04 3c 9b 01 fb 3d
       0.00074967457 0.075190395 0.008117542 0.122561656
000190 3a 47 9b bd b8 42 86 3d c4 2a 04 3e 22 dc a9 3d
       -0.07581945 0.06555694 0.12906939 0.0829394
0001a0 60 db 73 bc 39 e7 03 3e 80 83 5a 3d f4 38 bf bd
       -0.014883846 0.12881173 0.053348064 -0.09337035
0001b0 8f 7d 18 3e da 86 be bd 14 d5 f9 3d 1f 91 d7 bb
       0.14891647 -0.09303065 0.121988446 -0.006578579
0001c0 80 e9 0c bb 56 e7 d8 3d 31 b0 90 bc f0 48 8b bc
       -0.0021501482 0.10590999 -0.01766214 -0.017002553
0001d0 80 41 55 bc eb 46 08 3e 52 1d f5 bd 30 00 dc bd
       -0.013016105 0.13308303 -0.11968483 -0.10742223
0001e0 a4 a6 01 3b 54 98 dd 3d 84 5f d6 3d 72 52 65 bd
       0.0019783163 0.1082007 0.10467437 -0.05598683
0001f0 00 30 18 ba 1c 7e f1 3d a9 b9 da 3d 4c 74 d7 bd
       -0.00058054924 0.117916316 0.10679943 -0.10520229
000200 ea 92 fd bd 26 e5 06 3e 40 74 48 bb 94 bd dc bd
       -0.12381537 0.1317335 -0.0030586869 -0.10778347
000210 8b d3 9d bb 4c d5 b4 3d 42 7f 84 bd 37 40 4e 37
       -0.0048164777 0.08829746 -0.06469585 1.2293508e-05
000220 7e ef b1 3d 18 15 91 3c 2e f9 52 3d c0 9c b7 bb
       0.08688258 0.017710254 0.051507168 -0.005603403
000230 ac 20 c5 bd b7 8b 2f 3e c8 8e c3 3d 90 1f a5 3d
       -0.09625372 0.1714314 0.09548718 0.08062661
000240 b0 36 c3 b9 a0 15 9f 3c c4 19 8c 3d db 8a 9d 3d
       -0.00037234044 0.019419491 0.06840852 0.076925
000250 70 12 2b bc c2 d9 cf bd 1e c6 93 3c 22 5d c1 3d
       -0.010441408 -0.10148956 0.018038806 0.09441592
000260 90 21 e0 bc 16 dd 39 bb 12 ac 8b 3d 68 80 b4 3d
       -0.027359754 -0.0028360537 0.06819929 0.08813554
000270 5b 5d 52 3d 56 47 ba bd a0 ec bb bc d9 29 50 3d
       0.051358562 -0.090956375 -0.02293998 0.05082116
000280 fc 41 c4 bd b0 bc b9 3c b3 27 1b bd 00 9d ff 3d
       -0.09582898 0.022672981 -0.037879657 0.12481117
000290 ca 47 a6 3d 14 e7 92 3d b0 36 d2 3d 7c e3 99 bd
       0.081191614 0.07172981 0.10264337 -0.07514092
0002a0 1d e5 31 3c f6 1b cb bd 80 e2 42 bc 06 fb 8e 3d
       0.0108578475 -0.099174425 -0.011894822 0.06981473
0002b0 a4 3c 7c bd a4 b4 f1 bd bb fc 12 3e 8e 29 df bd
       -0.06158127 -0.118020326 0.14354222 -0.10896598
0002c0 b0 b1 a5 3c d4 b5 8c b9 c0 78 fb 3b 28 51 c3 bd
       0.02022633 -0.00026838353 0.0076743066 -0.09536964
0002d0 6e ec e8 3c 58 c2 94 3c e8 14 b0 3c a6 7f de 3d
       0.028433051 0.018159077 0.021494344 0.10864191
0002e0 80 38 9e 3b 90 b7 b8 bc 2e ba ea bb ee cc 8a bd
       0.0048285127 -0.022548467 -0.0071633076 -0.067773685
0002f0 c8 d6 c2 3d ee 7b f4 3c c0 b8 81 3c d4 6f 5b bd
       0.095136225 0.02984425 0.015835166 -0.053573444
000300 58 60 c9 3d a0 03 54 3d 58 23 fc bc 85 97 1f bb
       0.09832829 0.05176127 -0.030778572 -0.0024351787
000310 f8 7d c3 3c a0 d3 04 3d e9 c6 b9 3c a4 5d f0 bd
       0.023863778 0.032428384 0.022677856 -0.117366105
000320 14 fb ab bd da b3 f8 3a f0 52 5f bc ce 1d 81 3d
       -0.08397499 0.0018974498 -0.013630614 0.06304513
000330 df da 10 3e 84 6b 4d bd d0 dc 39 bd 8c 04 a7 3d
       0.14145993 -0.050151363 -0.0453766 0.08155164
000340 48 ae a1 3d 64 99 b2 3d 65 49 9e 3c f2 e2 a3 bd
       0.0789457 0.08720663 0.019322107 -0.08002271
000350 4c 89 a5 3d ab 7b f6 3c 06 a0 f0 bd e4 09 59 bd
       0.08082828 0.030088266 -0.11749272 -0.052987948
000360 5b 49 f3 3d 00 d6 44 bc 18 e7 93 bd 2b ad 5e 3c
       0.11879226 -0.012013912 -0.07221812 0.013591091
000370 fa 66 c2 3d 14 80 76 3d bc 8c bc bb 08 3b ed bd
       0.094922975 0.06018074 -0.0057540815 -0.11583525
000380 b4 f1 ed bd 37 bc 3f 3d 00 ce a0 ba 28 73 61 bd
       -0.11618367 0.046810355 -0.0012268424 -0.055041462
000390 bf 02 92 3d a8 51 78 bd d2 6b 9a bd b0 6c 28 3e
       0.0712943 -0.06062475 -0.07540096 0.16447711
0003a0 0c f0 a9 bd 2c c1 61 bd 75 7a 67 bb b8 2e f4 3d
       -0.082977384 -0.055115864 -0.0035320793 0.119229734
0003b0 80 ad 51 3d 8a 5c 92 3d 44 05 02 3d 00 d0 ac ba
       0.051190853 0.07146557 0.031743303 -0.0013184547
0003c0 e5 8c b9 3c b8 37 a6 bd f8 7a b3 bc 53 50 cc 3d
       0.022650192 -0.08116096 -0.021909222 0.09976258
0003d0 d8 67 98 3c 20 15 a4 bb 44 ef 2a 3d 68 45 89 bc
       0.018604204 -0.005007401 0.041732088 -0.016756728
0003e0 68 e3 c3 bc 80 f5 64 3d c8 a2 a0 bc 00 b7 eb 3c
       -0.023912147 0.05589819 -0.01960887 0.028773785
0003f0 3f f2 95 3d c0 f7 41 bc e8 88 c4 bc e1 b9 21 3e
       0.073215954 -0.011838853 -0.023991063 0.15793563

lstm.weight_hh_l0 f4 [256, 64]
000000 77 05 6d bd bb 28 7f bd e7 20 d7 bd 83 07 06 be
       -0.05786654 -0.062294703 -0.105043225 -0.13088803
000010 a1 7a 0d bd e4 23 9b 3d 43 29 bd 3d 3c eb a1 3d
       -0.034540776 0.07575205 0.09236386 0.079061955
000020 25 0c ec 3d f3 b1 a2 3d ca 4c b6 bd 32 52 35 bd
       0.11525754 0.07944097 -0.08901365 -0.04426784
000030 ec 1e 84 bc 7f b7 83 3c 8e 61 d1 3d 61 25 c9 bc
       -0.016128026 0.016078709 0.10223685 -0.024553956
000040 1a ae 8b bd b1 3b 9e bc c4 7e 61 bb 3a e0 3a 3d
       -0.068203166 -0.019315572 -0.0034407834 0.045623995
000050 d3 a6 80 bd 8e 3a 8f 3b ba ed c9 3d 3d 29 92 bd
       -0.06281819 0.004370994 0.09859796 -0.07136772
000060 22 4c 0f 3d 00 4a 49 3c aa bc d2 bd 22 36 6d bd
       0.034984715 0.012285709 -0.10289891 -0.057912953
000070 07 74 c8 3d 5f ad 14 3d 3b 3f 17 bd 96 8b 50 bd
       0.097877555 0.036298152 -0.036925536 -0.05091437
000080 8b 32 97 bd fc b1 02 be 47 e0 78 3d 19 60 e2 bd
       -0.07382687 -0.12763208 0.060760763 -0.110534854
000090 d3 1e 03 3d 61 39 a0 ba b2 4b b1 bd 48 30 e7 bc
       0.03201182 -0.0012224131 -0.08657016 -0.028221264
0000a0 cc f5 59 bd 73 de db bd 4f 26 81 3d 0c 13 01 bd
       -0.053212926 -0.10735788 0.06306135 -0.031512305
0000b0 c5 c4 c2 3c 7e 6c 6d bd cc 68 d6 bd 9e 3a 9d bd
       0.023775468 -0.057964794 -0.10469207 -0.07677196
0000c0 b1 92 ab 3c 21 bf c5 bd 2f 5c aa bc 97 49 3e 3d
       0.020943971 -0.096555956 -0.02079591 0.0464569
0000d0 3b 17 08 bd e0 13 a5 bd 98 c0 52 bd ee 80 06 be
       -0.03322528 -0.080604315 -0.051453203 -0.1313512
0000e0 f8 e3 9c bd f5 e6 81 3c 46 bf 95 3d 0e 87 b9 bc
       -0.07660669 0.0158572 0.07311873 -0.022647407
0000f0 e4 e3 83 bd 45 c8 7e bd 56 83 ec bd 33 3a 2c bd
       -0.06439951 -0.06220271 -0.11548488 -0.04204769
000100 33 a6 55 3c ea 62 0e bd c4 cb 49 3d 96 1d 6b bd
       0.013040113 -0.0347623 0.04926659 -0.057401262
000110 82 50 16 3e 6c 2c 8a 3d bb 58 94 bd 78 20 43 3e
       0.14679149 0.06746754 -0.072434865 0.19055355
000120 40 e0 1d 3d 5a c3 cc bd f1 62 d0 bd d1 7d 89 bd
       0.03854394 -0.09998198 -0.101751216 -0.06713451
000130 6b 99 07 3e bb e5 ce bb d5 8f 45 be e4 8e 22 be
       0.13242118 -0.006314007 -0.19293149 -0.15874821
000140 61 3f 64 3d 3d 01 23 be 9b 42 14 3c 73 73 d8 bd
       0.055724505 -0.15918441 0.009049083 -0.10568895
000150 ca 10 20 3e 6d 07 32 be 24 8b 27 3d 7a 39 2d 3d
       0.15631405 -0.17385645 0.04090418 0.042291142
000160 f3 40 4e 3e 52 d5 f4 bd c4 6d f9 bc 13 91 33 bd
       0.20141964 -0.1195475 -0.030447848 -0.043839525
000170 8b 5f 00 bd bd 7b 21 3d 7d 1d 1d be 03 99 c5 bd
       -0.031341117 0.039424647 -0.1534328 -0.09648325
000180 d3 c2 d3 bd 2c 0f 0a be 29 d4 cf 3c e4 ef d0 bd
       -0.10339894 -0.1348235 0.02536972 -0.102020055
000190 a8 05 da 3c 03 53 75 3d 30 63 16 3e 17 69 46 bd
       0.026614025 0.05989362 0.14686275 -0.048440065
0001a0 34 35 a1 bb 82 39 13 3d 79 16 d4 3b 3b 36 a5 3d
       -0.0049196724 0.035943516 0.0064724055 0.08066984
0001b0 2d d3 5e be d2 84 4b 3e 14 70 06 be d4 8c 47 3e
       -0.21760245 0.19874886 -0.13128692 0.19487315
0001c0 b5 6b 47 be cd ed 66 bd ee c9 2a be fe 44 ae 3d
       -0.1947468 -0.05637913 -0.16678593 0.08509253
0001d0 b6 ec e7 bd 32 f9 79 bd 18 1d 78 bc 2f e7 da bd
       -0.11324446 -0.061028667 -0.015143655 -0.10688626
0001e0 26 52 13 3e fb 56 0b 3e 74 96 01 3e fc 12 27 be
       0.14386806 0.13607399 0.1265505 -0.16315836
0001f0 4c 9d 24 3e 45 4c 84 bd dd 38 6e bd 95 a8 3f be
       0.16075629 -0.0645986 -0.058159698 -0.18716653
000200 a9 cd fb bd ff 2e 74 bd 7b ce e7 3c 0d 67 44 bd
       -0.12295086 -0.05961513 0.0282967 -0.04794984
000210 04 c8 1c 3e c5 18 47 bd 7c 88 1a be a6 e9 c5 3c
       0.15310675 -0.048607606 -0.15091127 0.024159264
000220 2e 7f 38 3e 68 3e 26 3d 94 9e c8 bd bc 77 02 be
       0.18017265 0.04058686 -0.097958714 -0.12740988
000230 39 dc da 3d c7 9f e3 bc 49 c7 11 be f9 d1 11 be
       0.106865354 -0.027786149 -0.14236178 -0.14240254
000240 f7 33 1f 3d 94 ae 2e be 9e d3 27 be f3 fb 5e 3a
       0.038867917 -0.17058784 -0.1638932 0.0008506171
000250 da 19 cb bb 6b cc d1 bd d7 ad 5c 3d 88 fd fe 3d
       -0.00619815 -0.10244068 0.053876724 0.12450701
000260 77 9c 33 3e cd 82 04 3d 18 e4 fd bd f0 b1 11 3d
       0.17540155 0.032351304 -0.12397021 0.035570085
000270 51 a8 4d be e9 a9 20 3e d0 a9 ea bd 4d 7b 32 be
       -0.20083739 0.15689816 -0.114581704 -0.17429848
000280 09 22 2a be 66 03 26 be e5 ee 21 be c8 65 cf bd
       -0.16614546 -0.16212234 -0.15813787 -0.10126835
000290 26 a4 26 bd 5c 9b 62 3d 95 88 f8 bc 44 12 28 ba
       -0.040683888 0.055323943 -0.030338565 -0.0006411413
0002a0 c0 57 14 bd 96 60 3d 3e cc 00 0b 3e b2 a9 00 3e
       -0.036216497 0.18493876 0.13574523 0.12564734
0002b0 cc 44 d0 bd a6 65 eb 3c df 0a c8 bd a4 3d 45 3e
       -0.10169372 0.028734993 -0.097676985 0.19261795
0002c0 c7 97 10 be 3a a7 d2 3b 33 e9 86 bd 71 14 22 bd
       -0.14120398 0.0064286264 -0.06587448 -0.039570276
0002d0 28 56 b3 bc 0a e5 05 be 81 04 30 3d 21 73 3a 3d
       -0.021891668 -0.13075653 0.042973045 0.04551995
0002e0 c0 76 1b bd 07 23 2f 3e 24 44 e2 3d 28 e5 b0 bd
       -0.037955046 0.17103206 0.11048153 -0.08637458
0002f0 fc dc ae 3d 16 d6 1e be 6a b9 bc bd 2c 88 85 bd
       0.08538243 -0.15511355 -0.092150524 -0.06520113
000300 04 c4 60 bd a9 02 07 be 33 fb 5f bc 56 d2 46 be
       -0.054874435 -0.13184609 -0.01367073 -0.19416174
000310 b1 29 96 3d cc df 8c 3c d2 8e ea bd 21 cc 4e 3e
       0.07332171 0.017196558 -0.11453022 0.20195056
000320 60 d9 ec 3d 90 43 95 bd 6a f1 4c be aa af 6a bd
       0.115648985 -0.07288277 -0.20013967 -0.057296433
000330 03 eb 44 bc 8e 58 3c 3e 69 7a 19 bd 7d 6c ef ba
       -0.012018922 0.18393156 -0.037470255 -0.0018266585
000340 25 5f 48 3e a4 82 e0 bd bd 2f 10 be f7 9f 2f be
       0.19567545 -0.10962418 -0.1408071 -0.17150865
000350 46 4b 29 3d 84 c5 20 be d5 0b 7b 3d 98 17 b1 3d
       0.041331552 -0.15700346 0.06129058 0.08647078
000360 69 48 4d 3e 4a 51 46 be aa 7f ec bd 84 d9 0f be
       0.20047154 -0.19366947 -0.115477875 -0.1404782
000370 82 84 0b be df ec da 3c 49 96 00 bc af ab 6f 3c
       -0.13624766 0.026724277 -0.007848331 0.014628335
000380 87 a3 0e 3c db 23 2b be 67 ba b7 bd b2 a9 cb bc
       0.00870598 -0.16712897 -0.089711 -0.02486119
000390 3c 46 43 3e 2f c8 49 3e 1e 12 be 3d 33 ba 1f be
       0.19069761 0.1970527 0.09280799 -0.15598373
0003a0 5b 9b 36 3e 9a 52 17 3d a5 86 25 3e 26 a9 01 3d
       0.17832701 0.03694401 0.16164644 0.031655453
0003b0 fa f4 a7 bd ac e7 00 3e 2d cd e0 bd 7d 4a 49 3e
       -0.082010224 0.12588376 -0.10976634 0.19657321
0003c0 5a ac 18 be c6 9f ac 3c e3 bc fe bd c6 f9 ce 3d
       -0.14909497 0.02107228 -0.12438371 0.10106234
0003d0 98 46 39 be 97 63 1c be 06 ee 06 bd 92 98 ac bd
       -0.18093336 -0.15272366 -0.03294184 -0.08427538
0003e0 d8 17 7d 3d e8 50 17 3e 9e 5e e8 3c cc 32 58 bd
       0.061790317 0.14776957 0.02836543 -0.05278282
0003f0 82 c8 02 3e 91 9b 9c bc f4 b1 e1 3c c1 90 37 be
       0.127718 -0.019117149 0.027550675 -0.17926313

lstm.bias_ih_l0 f4 [256]
000000 26 6b 72 3b 58 e7 16 3e ac f5 f7 3d 14 db 4c 3c
       0.0036990135 0.14736688 0.12107405 0.012503404
000010 0d 22 b3 3d ad fb 9c 3c ad 29 f4 3d 47 c8 8e bc
       0.08746729 0.019162977 0.119220115 -0.017429484
000020 03 39 16 3e ed eb 3a bd 6f 8e 9b bb 35 b7 a0 bc
       0.14670186 -0.045635153 -0.004747204 -0.01961861
000030 28 57 f0 bb 36 a5 e9 3d 7c 84 b6 3d a9 9e 1f bd
       -0.0073346086 0.114084646 0.08911988 -0.03896967
000040 6a f3 d7 bc 6e 4b 0c bd 59 b0 8d 3d 64 9e fc 3c
       -0.026361186 -0.034251623 0.06918401 0.030837245
000050 e8 d9 de bc fe 99 d4 3c a2 f3 f3 3c 65 bf 15 bd
       -0.027203515 0.025952335 0.02977926 -0.03655948
000060 f3 1d d5 3d df f7 33 bd 95 cd d2 3c 04 1d 0c 3e
       0.10406103 -0.04393756 0.025732795 0.13682944
000070 b0 79 8a bd 46 35 1c 3e 8b 6f b3 3d 5c f4 81 bd
       -0.06761491 0.15254697 0.087615095 -0.06345436
000080 35 69 c1 3d 20 c1 b2 3d b7 d4 96 bd 34 c3 81 bd
       0.09443895 0.08728242 -0.07364791 -0.0633606
000090 a9 e7 01 3e a1 49 d0 3d 33 43 7b 3c 76 fa 5d 3d
       0.12686028 0.101702936 0.015335846 0.054193936
0000a0 a0 da bb bc 72 6e 50 bd 70 1b 0b 3e c5 3e 4c 3d
       -0.022931397 -0.05088658 0.13584685 0.04986455
0000b0 ab ea 78 3d 92 ff a4 bc d4 d8 45 3d 18 9e 36 3d
       0.06077067 -0.020141397 0.048302487 0.044584364
0000c0 f0 6d 19 3e 6a 35 fc bd 10 a9 58 3d 17 43 87 3d
       0.14983344 -0.123148754 0.052895606 0.06604593
0000d0 36 31 8d 3d 9d af 2d 3d 45 62 76 3c 0b 13 fa bc
       0.06894152 0.042403806 0.015038078 -0.030526659
0000e0 69 4f 34 bd 25 1e 59 bb 8f 28 b3 3d 49 be b3 bd
       -0.044021044 -0.003312954 0.0874797 -0.087765284
0000f0 3e 2a ac bd 65 b1 0d 3e 89 37 76 bb 25 e4 81 bd
       -0.084064946 0.13837202 -0.0037569723 -0.06342343
000100 90 ec 51 3d d7 63 00 3c c7 c1 21 3e f5 e6 db 3d
       0.051250994 0.007836304 0.15796576 0.10737411
000110 29 9f 06 3e 71 bb fe bc 5c 68 82 3c 46 02 96 bd
       0.13146652 -0.031095238 0.015918903 -0.073246524
000120 16 08 7e bd cf 46 83 bd 82 23 8b 3d 96 31 d4 3c
       -0.06201943 -0.0640999 0.06793882 0.02590255
000130 18 99 32 3d 3e 8b 3d 3d 43 2d da 3d 4c 17 d1 3c
       0.043603033 0.04627537 0.10653164 0.025523804
000140 48 de 13 3e 3e 6e 27 3e 6c 21 75 3c a7 92 ac 3d
       0.14440262 0.16350648 0.014961582 0.08426409
000150 95 41 37 3d 74 26 e9 3d 54 22 55 3d 4e cc a0 3d
       0.04474028 0.113842875 0.05203469 0.07851468
000160 0c 00 d3 3d d7 44 89 bc 52 86 33 3c 73 b1 ff 3d
       0.10302743 -0.016756458 0.010957317 0.12485018
000170 79 d5 57 bd 18 42 1a 3e 8b 3e 0f 3e 6a cf a7 3c
       -0.052693818 0.15064275 0.13988702 0.020484645
000180 d4 f2 39 3c ba a2 ff bc 7f 38 15 3e b0 61 cb 3d
       0.011349399 -0.031205524 0.14572333 0.09930742
000190 45 06 e1 3d 44 6a 53 bd 22 ba 2c 3c 1f 6d e7 3b
       0.10987524 -0.051615015 0.010542424 0.007062569
0001a0 47 e4 c3 bc c3 74 d3 bc ff 69 a1 3d 7b 7a ac bd
       -0.023912562 -0.025812512 0.07881545 -0.08421799
0001b0 26 18 68 3e 2e b6 c1 3d 88 fb 30 3d 92 b8 ce bc
       0.22665462 0.09458576 0.04320863 -0.025234494
0001c0 b3 db a2 3d 53 c1 a8 3d 39 ae 4d 3d 2a ca fb 3c
       0.079520606 0.08239999 0.05021498 0.030736048
0001d0 3e 4a 7f 3d e3 3f a6 3d 92 61 12 3e c4 54 11 3e
       0.062326662 0.08117654 0.14295033 0.14192492
0001e0 d0 d3 83 3d 17 d3 84 bb 3d eb 09 bd 02 b4 0d 3e
       0.064368844 -0.004053484 -0.033671606 0.13838199
0001f0 a6 67 b9 3b 2a 2d 8b 3d 4a 38 5e 3d 97 4c 04 3e
       0.005658108 0.06795724 0.0542529 0.12919842
000200 b8 4f c1 3b 89 d9 b2 bd 38 b7 c1 3d da 2d aa 3d
       0.005899396 -0.08732898 0.09458774 0.08309527
000210 31 46 0f bd 18 d2 85 3d 56 23 67 bc bd 41 15 3e
       -0.03497905 0.06534213 -0.014107546 0.14575858
000220 57 f1 c6 bb ca f8 f9 3b 04 ad c5 bd 64 d2 14 be
       -0.0060712504 0.007628535 -0.09652141 -0.14533383
000230 42 6d 34 3d 52 78 df bb 4b 09 f0 bd dd 66 27 3d
       0.04404951 -0.006819763 -0.117205225 0.040869582
000240 1c 5b 0b bd 94 47 e2 bd 0c b0 87 3c 94 9e c2 bd
       -0.034022436 -0.11048809 0.016563438 -0.095029026
000250 c1 99 fd 3d 50 24 01 bb bf 6e 28 bd e9 f9 d1 bd
       0.12382842 -0.0019705482 -0.04112124 -0.10252745
000260 13 1d 18 3e ef a7 82 3c ff 23 bb bd 48 25 bc bd
       0.14854841 0.015949218 -0.09137725 -0.09186798
000270 c9 00 a6 3c c0 28 e3 3d 2d 18 c1 bd d2 db fd bd
       0.020264046 0.11091757 -0.09428439 -0.12395443
000280 fe e2 d5 3d 07 78 8e 3d 67 2c f7 bd c4 11 69 bd
       0.10443686 0.06956487 -0.12069016 -0.05690171
000290 b2 72 94 bc 90 f1 df 3d 3b 48 01 3e b0 1b 25 bd
       -0.018121097 0.10934746 0.1262521 -0.040309608
0002a0 69 bb fd 3d da 8f 0f 3d 88 b0 d3 bd 80 62 4a 3d
       0.12389261 0.035049297 -0.10336405 0.049410343
0002b0 c2 69 d6 3c cc 6f 2d bd c0 df 82 bd ca ed 85 3d
       0.026173476 -0.042342946 -0.06390333 0.06539495
0002c0 d3 3d b1 3d c5 77 7e bd 35 50 08 bd 04 16 06 bd
       0.0865437 -0.06212594 -0.033279616 -0.03273584
0002d0 21 fd 84 bc a7 7e fb bd c2 b8 d9 3d df 59 5b 3d
       -0.016233983 -0.122800164 0.10630943 0.053552505
0002e0 18 d7 83 3c db 1f 45 3d b9 87 b9 bd 71 2f 0a bd
       0.016093776 0.048126083 -0.0905909 -0.03373665
0002f0 a0 1a 1c 3c d4 09 39 3d 92 ab 34 3c 5b 22 93 3d
       0.009527832 0.04517539 0.011027234 0.07184287
000300 30 dc cb 3d 6e a5 a8 3c f9 dd 84 3d fe 60 7f bd
       0.09954107 0.020586696 0.064876504 -0.06234836
000310 8f 55 7e 3c 84 a1 92 bc e2 e2 2b 3e a1 4a 7f 3d
       0.015523328 -0.017899282 0.16785768 0.06232703
000320 46 33 e7 3d 4f 3b 16 3e ed 6e b0 3d 8b 3d 92 3d
       0.112890765 0.14671062 0.086149074 0.07140645
000330 fd 6f de 3b c8 e6 de 3d 94 e4 c8 3d 85 92 98 3d
       0.0067882524 0.10883862 0.09809223 0.074498214
000340 83 80 22 3e f0 6d 28 3e ff 73 f4 3d 85 e2 ff 3d
       0.15869336 0.16448188 0.11936187 0.12494377
000350 b0 e0 b0 bd e3 ff 83 3d b7 e3 b5 3d 50 40 da bc
       -0.08636606 0.06445291 0.08881324 -0.026641995
000360 46 8c 20 3e 39 a5 9e bb 91 31 e0 bc bf 76 a3 3d
       0.1567851 -0.0048414734 -0.027367385 0.079816334
000370 9a de 9b bb e8 3f 1c 3e 56 ac 08 3b 75 6d ac 3d
       -0.004756761 0.15258753 0.0020854673 0.08419315
000380 c3 f4 af 3d 01 b3 32 3e 9f e8 79 3c 08 c9 cb 3d
       0.085916065 0.17451097 0.015253215 0.09950453
000390 fc 58 94 bc e2 a9 cd 3d fb c2 f5 3d f3 7e 26 3d
       -0.018108837 0.10042168 0.1200008 0.040648412
0003a0 14 51 8e 3c 3d 32 97 3d 0a 7f a5 3c f8 0e 4c bd
       0.017372645 0.07382629 0.020202179 -0.049818963
0003b0 c0 3e dd 3d 43 75 33 3e 95 77 86 3c 65 4e df bb
       0.10802984 0.175252 0.016414443 -0.0068147653
0003c0 ad 58 0d 3e cc 28 33 3e 0e 02 f1 3d 6c 92 b7 3d
       0.13803358 0.17496032 0.1176797 0.08963475
0003d0 d9 61 96 3a 89 a7 a1 3d d5 0d 2b 3e 0b 85 b3 3d
       0.0011473253 0.07893283 0.16704495 0.0876561
0003e0 f3 61 e6 3d 36 c9 ed bc cf 3a 30 3e 48 52 17 3e
       0.11249151 -0.029026609 0.17209934 0.14777482
0003f0 b1 79 38 3d 60 68 bc 3b 0c e1 4f bd 15 63 e4 3d
       0.04503793 0.005749747 -0.05075173 0.11151711

lstm.bias_hh_l0 f4 [256]
000000 ab c3 d1 bd 46 7a 16 3e e0 35 f4 3d da 80 ca 3d
       -0.10242399 0.14695081 0.11924338 0.09887858
000010 af 8b 3b 3d 90 3a 36 3d 3b 8e 92 3c 12 d0 48 3d
       0.04578751 0.044489443 0.017890086 0.049026556
000020 21 3d 89 3d 52 8e 54 bd 37 dc 03 3e 80 98 da 3d
       0.067011125 -0.05189354 0.12876974 0.10673618
000030 6c a3 9b 3d b7 b8 dc 3d b3 05 a9 b9 d2 83 ad bd
       0.075995296 0.10777419 -0.00032238438 -0.08472408
000040 13 d0 1b 3d 29 bc 06 bc 54 f3 28 bb a7 61 1b 3e
       0.038040232 -0.008223572 -0.00257798 0.1517397
000050 33 66 df 3d bb 88 66 bd 0d 97 29 bd 09 46 10 3e
       0.10908165 -0.05628274 -0.04140382 0.14089216
000060 a7 1e e9 3d 01 cd 9d bd 6c d2 95 3c 21 39 3b bd
       0.113827996 -0.07705117 0.018288814 -0.04570878
000070 6e 78 ce 3d ca d1 76 bd e7 a1 6e 3d d7 a9 f4 3d
       0.10081564 -0.060258664 0.05825987 0.11946457
000080 5f 6a fb 3d 5a a8 39 bd 26 de 57 3d 24 2f 84 3d
       0.12276148 -0.04532657 0.05270209 0.06454304
000090 ae be 84 3c 49 24 1a 3e 53 2b df 3d 2c 91 06 3e
       0.016204204 0.15052904 0.10896935 0.13141316
0000a0 87 4d d4 3d c8 66 9b 3d 32 1b d6 3b 2b b4 aa bc
       0.1036635 0.07587963 0.0065340037 -0.020837864
0000b0 f7 78 3f 3e 34 b3 1a 3d ed b0 9b bd 38 52 91 bd
       0.18698488 0.037768558 -0.07602105 -0.0709576
0000c0 33 6a 22 3d 29 47 25 bd d6 b6 47 bd 89 49 77 3d
       0.03965206 -0.040351067 -0.04875835 0.060372863
0000d0 94 64 99 3d 7b 72 9b 3d 2f c9 0a bd 27 1f 1c 3e
       0.07489887 0.07590195 -0.03388327 0.15246259
0000e0 25 88 28 bd 57 60 d7 3d b5 a2 a1 bd e7 56 9d bd
       -0.041145463 0.10516422 -0.07892362 -0.07682591
0000f0 20 7f 5c bd d5 75 02 3e 0d 87 0f 3c d3 c1 fb 3d
       -0.053832173 0.12740262 0.008760226 0.122928284
000100 8a 48 e5 bd 66 f5 44 3e da 33 ef 3c 01 1e b1 3d
       -0.11195476 0.19234237 0.02919953 0.08648301
000110 32 5a ff 3d 99 d2 70 3d 00 42 b4 3d 1a a5 0f 3e
       0.12468375 0.05879459 0.08801651 0.14027825
000120 46 8c d2 bc a7 13 10 3e 76 99 17 3e c7 36 47 3d
       -0.025701653 0.14069997 0.14804634 0.048636224
000130 ce 70 fb 3b ae 36 5e bd fa ba a0 bb 4b dd a0 3d
       0.0076733595 -0.054251365 -0.004905102 0.07854708
000140 86 a7 65 3d 20 94 a0 bd 46 ec b5 3d ed d2 01 3e
       0.056067966 -0.078407526 0.08882956 0.12678118
000150 0f 38 72 bd a3 09 65 bd b3 43 93 bd 32 f7 c4 bd
       -0.059135493 -0.055917393 -0.07190647 -0.09617461
000160 5c 1f 2d bc d4 e6 e8 3d 92 52 76 bd 12 6f 09 3e
       -0.010566559 0.11372152 -0.06013734 0.13421276
000170 32 db 50 3b 6e 5f ae 3d ed b9 b7 3d 4c d0 53 3e
       0.0031868932 0.085142955 0.089710094 0.20684928
000180 40 11 77 3d 4e a2 0f 3e b1 50 1b bc f4 87 97 3d
       0.060319185 0.14026758 -0.009479688 0.07398978
000190 d9 75 a6 bd 98 9a cd 3d a2 24 c4 3b ee cf 87 bc
       -0.081279464 0.10039252 0.0059858123 -0.01657864
0001a0 48 ba b2 bc 2b 93 ba 3d 28 e2 c3 3c 9a d3 25 3c
       -0.021817341 0.09110101 0.02391155 0.0101212505
0001b0 ef 7b 43 3e c5 51 66 bc 82 69 85 3d 13 a5 03 3e
       0.19090246 -0.014057581 0.06514265 0.1285594
0001c0 20 93 07 bd ba 03 4a bd 28 23 11 3e 92 77 cb bc
       -0.033099294 -0.04931996 0.14173567 -0.024837289
0001d0 77 3c 74 bd 33 f3 0f 3e 6d 35 2b bd 90 de 07 3e
       -0.059627976 0.14057617 -0.041798998 0.13268495
0001e0 6a 1f 13 3e d4 9e f5 3d 91 1f 3c 3e 92 eb df 3d
       0.14367452 0.11993185 0.18371417 0.10933603
0001f0 34 83 40 3e ed d6 c7 3c 3d 2d 13 3e 52 f6 57 bd
       0.1880005 0.024394477 0.14372726 -0.052725144
000200 77 99 85 3b 3c 9d 8d 3d 59 ba 3a bd 80 e4 ea bd
       0.0040771323 0.06914756 -0.04558787 -0.11469364
000210 2a c3 bb bd 75 8c a6 3c 97 4c b7 bd 25 88 2e bd
       -0.09168084 0.020330647 -0.08950155 -0.042610306
000220 05 ed 07 3e 8b c1 1a be a6 84 5c bc bd 99 66 bd
       0.1327401 -0.15112893 -0.01345936 -0.05629896
000230 34 bc 0d 3c 15 6a ac 3d 01 58 b8 3c 74 db b4 3d
       0.008650828 0.08418671 0.022502901 0.0883092
000240 9f 1e c3 bb b6 ec ea 3c b6 a0 3d 3d 82 2a 31 3d
       -0.005954578 0.028677326 0.046295844 0.04325343
000250 2f b1 d5 3d 34 3b fd bd 55 57 8b 3c 81 2c 01 bd
       0.10434186 -0.12364808 0.017009417 -0.031536583
000260 40 97 a2 3d 9d 2e 12 3d d5 32 63 bd de 2f f9 bd
       0.07939005 0.035688985 -0.0554684 -0.12167333
000270 fe a3 65 3d de 05 38 bc 8a ff 93 bd e0 8c 64 bc
       0.0560646 -0.011231868 -0.072264746 -0.013949603
000280 5c 2f 4d bd ad af a2 bd c7 5e 86 3d be a8 80 3c
       -0.050093994 -0.07943664 0.06561046 0.015705463
000290 1c 64 05 bd b5 24 08 3d 65 e2 82 3c e5 e3 fa bd
       -0.032566175 0.03323813 0.015977094 -0.12250499
0002a0 6b d5 da 3d f8 80 ec 3d 4a 2f 8c bd 77 dd cc 3d
       0.106852375 0.11548036 -0.06844957 0.100031786
0002b0 21 29 21 be 68 31 62 3d 8c 73 a9 bc f4 4c 14 3e
       -0.15738346 0.0552229 -0.02068498 0.1448248
0002c0 d0 f6 11 be d0 df e0 bc 61 52 f3 bd 7a 7d 20 3e
       -0.14254308 -0.027450472 -0.11880947 0.15672866
0002d0 90 8c 05 be 83 c8 81 bd fc a4 8c 3d 06 25 26 3d
       -0.13041902 -0.06337073 0.06867406 0.040562652
0002e0 59 b5 ad 3d 5a 34 16 3d c0 cc da 3c 14 d5 dd 3c
       0.08481855 0.03667102 0.02670896 0.027079143
0002f0 ff d5 b5 3c cf d8 e1 3b 84 5b d0 bd be 58 3d bc
       0.022196768 0.0068923007 -0.10173705 -0.011556802
000300 12 a5 0f 3d 78 24 d3 3b 9c 7e 9c 3d 89 b3 06 3e
       0.035069533 0.0064435564 0.07641336 0.13154425
000310 fc 3e a2 bd 10 3d aa bb 4c 43 68 bd ae 08 9f 3d
       -0.079221696 -0.0051952675 -0.056704804 0.077653274
000320 a2 e1 62 3d ee 67 ce 3a 8e f1 14 3c e8 ed ea 3d
       0.05539096 0.0015747526 0.009090794 0.11471158
000330 db 74 0d 3e 5e b8 0a 3e 31 f7 f4 bc 7b 92 93 3d
       0.13814108 0.13546893 -0.029903026 0.07205673
000340 71 f1 b7 3d 19 13 30 bc 29 44 72 bd b5 de 89 bd
       0.08981598 -0.010746741 -0.059147034 -0.06731931
000350 15 09 9a 3c 9b 29 05 3e 50 41 0f 3e 25 60 0c 3e
       0.018803159 0.13004152 0.13989758 0.13708551
000360 e9 41 63 bd 0f 10 8e 3d 2f f3 4b 3b 3b 84 41 bd
       -0.05548278 0.06936657 0.003112029 -0.047245245
000370 6c 83 33 3c 03 57 fe 3c 27 72 87 bc 00 74 2c 3e
       0.010956626 0.03104735 -0.016533924 0.16841125
000380 98 31 6a 3d 2b 18 ce 3d 14 b5 a2 3c 4d 75 de bc
       0.057176203 0.100632034 0.019861735 -0.027155543
000390 1b df 09 3d 7e 1e a2 bd 87 bf 37 bd 3f a9 65 3d
       0.033660036 -0.07915972 -0.04486039 0.05606961
0003a0 5e ae cb 3c 93 ac 26 3e 7c a7 4a bd 67 74 39 3d
       0.024863418 0.1627677 -0.04947613 0.045277026
0003b0 4f 98 cc 3d c2 74 98 bc 59 42 9a 3d 98 df a9 bb
       0.09989988 -0.018610362 0.07532186 -0.005184125
0003c0 5a 7d e2 bc 23 02 1a 3e 94 b2 9b bd 17 b8 2b 3e
       -0.027647663 0.15039878 -0.076024204 0.16769443
0003d0 45 dc d5 bc e4 a8 df 3c 16 90 e6 3c 3c 74 bc bd
       -0.02610601 0.027302213 0.028144877 -0.092018574
0003e0 d1 de f6 3d e3 4c d6 3c 47 fe 3f 3b 4c 5a 0d bd
       0.120542176 0.02615971 0.0029295848 -0.034509942
0003f0 e6 c3 97 bc cc 94 56 bd 5a 6d 1c bd f5 30 06 3e
       -0.018526029 -0.052387998 -0.038190223 0.13104613

lstm.weight_ih_l1 f4 [256, 64]
000000 09 ca 4b bd 4a 6d cc bd 24 9b 59 3c 52 e1 f7 bd
       -0.049753223 -0.09981783 0.013281617 -0.12103523
000010 93 8b a9 bd c6 83 09 3e 69 03 80 bd cf 2d b1 3d
       -0.08278575 0.13429174 -0.062506504 0.086513154
000020 6d c9 bc bb f0 05 00 3d 95 30 a1 bd b9 2d af bd
       -0.0057613165 0.031255662 -0.078705944 -0.08553643
000030 a1 32 e0 3d cc 9b bd 3c ec f5 7e 3c b8 56 2f bb
       0.10947157 0.023145579 0.015561562 -0.002675457
000040 87 46 d8 bb d0 f5 ac bd 47 b6 43 bd 6b 60 92 bd
       -0.0066002044 -0.084453225 -0.047781255 -0.071472965
000050 b5 83 40 bd f6 ed a4 bd 1e c3 be bd a8 3d 8f 3d
       -0.047000606 -0.080532 -0.093145594 0.06994182
000060 69 49 89 bd f5 cd 98 bd 16 da eb bc 0e 7d 9e bd
       -0.06703455 -0.07461158 -0.028790515 -0.07738696
000070 f2 9d 29 3d 97 4b 86 bd 79 97 40 3d 10 85 98 bd
       0.041410394 -0.06557386 0.047019456 -0.07447255
000080 7b 61 0b be 5a ed 48 3d 6f 34 27 3d 51 e3 7f 3d
       -0.13611405 0.04905448 0.04082149 0.062472645
000090 b1 a7 89 3a 23 f7 24 3d 49 39 90 bd 04 3c b8 bd
       0.0010502246 0.04027475 -0.07042176 -0.08995822
0000a0 d5 83 8f 3c e2 61 f2 3d bc f0 02 bd 9c fa ca bc
       0.017518917 0.11835076 -0.031967863 -0.024777703
0000b0 36 55 1f 3d 33 c5 fd 3d f8 3f e4 bd 41 5c 8d bb
       0.038899623 0.123911284 -0.111450136 -0.004313976
0000c0 bd 7a c2 3d 74 7e a4 3d 61 ed 02 be be 6c d6 3d
       0.09496067 0.080319315 -0.12785865 0.1046996
0000d0 23 1f 8d bd 38 c6 01 bd 61 68 91 3c bb 28 90 3d
       -0.068907045 -0.031683177 0.017749967 0.07039019
0000e0 71 0f 13 3e 07 2d af bd be f1 c0 3d c8 0e 00 3d
       0.14361359 -0.0855351 0.09421109 0.031264096
0000f0 1e 95 6c 3d 8d a6 e0 bd 6a 05 49 3d 35 5b 0c bd
       0.057759397 -0.10969267 0.04907743 -0.03426667
000100 e5 b9 06 3d 35 56 c9 bd ee a7 ad 3d ee f8 dc bb
       0.032892127 -0.09830896 0.08479296 -0.006743542
000110 c0 c1 c0 3d 34 b4 bf 3d ec 9e 9a bd 31 10 03 3e
       0.09411955 0.09360543 -0.07549843 0.12799145
000120 91 57 f5 bc fd 21 3b bd 7f fd a4 3d d8 ca 3c 3c
       -0.029948981 -0.04568671 0.08056163 0.011522971
000130 aa 7c 6d bd 7d e7 f2 3b 37 f1 4b bd 18 0d 2f bd
       -0.057980217 0.0074128495 -0.049790587 -0.042737097
000140 2e 9f e9 bc 16 33 58 3d 30 ba 9d bd c2 69 ce 3c
       -0.028518286 0.052783094 -0.07701528 0.025196914
000150 9b 1a 12 3e a5 5e 06 be 5f 52 1f 3d b2 59 60 3d
       0.14267962 -0.13122042 0.038896915 0.05477304
000160 b9 6f ad 3d 98 c2 26 bd 21 e3 18 bb 1e 40 ea 3b
       0.08468575 -0.040712923 -0.0023328739 0.0071487566
000170 f0 a4 5e 3d 50 f5 83 3d db c5 1b 3c 55 84 95 bd
       0.054356515 0.06443274 0.009507622 -0.07300631
000180 79 a2 28 3d 11 8c d8 bd ce 7c 04 3d f0 2e 89 bd
       0.04117057 -0.105735905 0.032345586 -0.06698406
000190 09 32 24 3d 53 c0 17 3e 60 ec 94 bb 9f c9 39 bb
       0.04008678 0.1481946 -0.0045447797 -0.0028348935
0001a0 08 2c aa bd e7 0b ea 3d cc fd ed 3d 85 04 8d bc
       -0.083091795 0.114280514 0.116206735 -0.01721407
0001b0 5b 24 10 3d e9 e5 06 3c 8a a4 99 3d e7 d4 2b bd
       0.03519092 0.008233526 0.075020865 -0.041951086
0001c0 18 d8 6d 3c 72 19 1c be 53 41 68 bd b8 b2 1e bd
       0.014516853 -0.15244082 -0.056702923 -0.03874466
0001d0 4f f0 dd bd 71 86 3f bd bc c3 b9 3c 7b 7a aa 3d
       -0.10836851 -0.046759073 0.022676341 0.083241425
0001e0 bc f4 b1 bd fa 07 99 bd d3 f3 78 bd c6 3f 85 bd
       -0.086892575 -0.074722245 -0.060779404 -0.065063044
0001f0 05 22 c4 bd 00 8f a1 bd 2c b6 0b be 3f 37 05 bd
       -0.09576801 -0.07888603 -0.13643712 -0.03252339
000200 35 36 8e 3d a6 fc 01 3d 70 0c 8b bc e9 09 5d bd
       0.06943933 0.031735085 -0.016973704 -0.05396453
000210 8a d0 ec 3d ff be 89 bc 7e a8 b9 bd 50 d1 1e 3e
       0.11563213 -0.016814707 -0.090653405 0.15509534
000220 0a 99 5b bd 32 29 77 3c e4 c5 83 bd 07 17 71 bd
       -0.053612746 0.015085505 -0.06434229 -0.05885985
000230 1e 60 0c 3e 28 49 51 3d 9c 89 b3 bd 66 47 a3 bc
       0.13708541 0.051095158 -0.08766481 -0.019931506
000240 4e 0e af 3d cc bf f1 bd d4 b6 01 be a0 4d 19 be
       0.0854765 -0.118041605 -0.126674 -0.14971018
000250 3d fb 95 3d a0 02 23 3d 11 4a a7 3d 04 8e 3a 3b
       0.073233105 0.039797425 0.08168424 0.0028465996
000260 e0 8f b3 bd b0 b9 26 bd 2b 6b 38 3d 75 7f 71 bd
       -0.08767676 -0.04070443 0.04502408 -0.058959443
000270 a7 b2 6f 3d 99 7f 03 bd c0 cd f9 bd 44 f0 6d 3d
       0.058519986 -0.03210411 -0.12197447 0.058090463
000280 33 a3 5c 3d 48 b6 fd bc e5 7a 7f bd 18 8c bb 3d
       0.053866576 -0.030970708 -0.06237306 0.0915758
000290 7b 12 32 3b 41 47 86 3d 86 20 1b 3e ce 94 cc bd
       0.002717166 0.06556559 0.15149125 -0.0998932
0002a0 14 d9 b5 3d 2d 45 11 3e 8c dd a7 bd 66 16 72 3d
       0.08879295 0.14186545 -0.081965536 0.059103392
0002b0 fb 04 6a bc 56 11 b7 bd 98 3d b3 bd c4 0a c7 3c
       -0.014283414 -0.089388534 -0.087519825 0.024297126
0002c0 8e 82 7c bc 33 a5 ab 3d 1f cf 52 3d b9 8f 0f 3e
       -0.015411986 0.083811186 0.051467057 0.1401967
0002d0 17 c0 cc bd 6e 01 3a bd 4c b8 b7 3d f7 c7 e6 bb
       -0.09997576 -0.04541152 0.08970699 -0.0070428806
0002e0 6a 50 96 bd ff b0 0e 3e 9b 1c 46 3d fe 6b a0 3d
       -0.073395565 0.13934706 0.048367124 0.07833098
0002f0 eb 5c 9b bd 4b 3c af bd 9d 52 ea bc d2 d6 a3 bd
       -0.07586082 -0.08556422 -0.028603846 -0.07999958
000300 9f cf e1 bd 38 59 d6 3a 0b d1 84 3d dc 70 71 3d
       -0.11025929 0.0016353494 0.06485184 0.05894552
000310 4c d2 05 3e 42 28 d7 bb db a3 02 be 73 91 6f 3c
       0.13068503 -0.0065660784 -0.12757818 0.01462208
000320 98 e0 dc 3d 5d 6a bc bb d9 2d fd bc f1 cf 6c bd
       0.10785025 -0.005749984 -0.03090565 -0.057815496
000330 89 3a b7 3c 01 38 59 bc d8 ea 1c bd 4a 1b 99 bd
       0.022366779 -0.013257981 -0.038309902 -0.07475908
000340 27 21 19 3e d1 51 e4 3c 06 74 34 bd 56 73 f3 bd
       0.14954053 0.027871044 -0.04405596 -0.11887233
000350 69 97 f5 3d b1 f6 62 ba 09 37 da 3d b9 a5 08 3e
       0.1199177 -0.00086579757 0.106550284 0.13344468
000360 da 11 bf bd e2 2f 41 bc d8 4c 6e bd 2d 2a ae bd
       -0.09329577 -0.011791201 -0.058178753 -0.08504138
000370 fd 00 fd bd d4 ed 18 3e fd c0 8c 3d b3 b6 8d bb
       -0.12353704 0.14934474 0.06872747 -0.004324758
000380 09 53 bd 3d 21 c0 62 bd 42 31 04 bd 7d 59 7d bd
       0.09244353 -0.05535901 -0.03227354 -0.06185292
000390 16 c0 6f bd c6 61 b7 bd 51 2c 14 3e 41 0d 07 be
       -0.058532797 -0.08954196 0.1447003 -0.1318865
0003a0 07 d0 b1 3b b3 62 85 3d 0a fb f1 3d a1 c6 e3 3d
       0.00542641 0.06512966 0.1181546 0.1112187
0003b0 7e 15 6c 3c ae e9 eb 3c f5 c6 92 bd 49 c1 ac 3d
       0.014409421 0.02879795 -0.07166854 0.08435304
0003c0 4c 88 27 3d 27 92 9f bd ba f4 de bd 0d 0e 87 3d
       0.040901467 -0.07791548 -0.10886522 0.06594477
0003d0 25 d2 48 bd 36 dd a6 bd 8e 56 18 3e 72 be 1a bd
       -0.049028534 -0.081476614 0.14876768 -0.03777928
0003e0 c0 fe 0e bd 58 44 0e 3e 4f 5b 77 bd 1f 6f 5f 3d
       -0.034910917 0.13893259 -0.060389813 0.054549333
0003f0 7c 83 78 3d 96 84 80 3d 70 fa 5f 3d a1 92 ac bd
       0.06067227 0.06275289 0.054682195 -0.08426405

lstm.weight_hh_l1 f4 [256, 64]
000000 4b 0e 4d 3d 2d 4e a2 bd 86 f4 a7 bd 80 ec e4 bd
       0.05006246 -0.07925067 -0.08200936 -0.11177921
000010 cf 23 29 bc 5a 4c 03 be e8 4f c4 bd c4 13 ad bd
       -0.010323479 -0.12822095 -0.095855534 -0.084510356
000020 4e 04 18 be 24 c4 af bd 9d 5e ae 3c 64 1c 48 3c
       -0.14845392 -0.08582333 0.02128535 0.0122138
000030 8b a2 81 bd 08 17 fc 3d d7 61 83 bd da a3 36 bd
       -0.06329831 0.1230908 -0.06415146 -0.044589855
000040 a6 db be 3d 16 b6 89 3d d7 6a 3b 3d 1f 3a a2 bd
       0.09319238 0.06724183 0.045756187 -0.07921242
000050 b2 10 30 bd 47 05 37 3d 3e 1f c4 3d 6e 22 af bd
       -0.042984672 0.044682767 0.095762715 -0.08551489
000060 e1 54 10 3b 3b c4 17 be 3a 81 a3 bd c7 3a f2 ba
       0.0022023248 -0.1482095 -0.079836324 -0.0018480652
000070 0e a0 d1 3d 7d b4 10 3e 26 41 02 bb 8e 84 cf 3d
       0.10235606 0.14131351 -0.0019875257 0.10132705
000080 fe 56 91 bc f8 cb c8 bd b5 fa 8a bc 7a 77 61 3c
       -0.017741676 -0.09804529 -0.01696525 0.013761396
000090 f2 12 a7 bd 9e 50 d3 3d 64 97 c2 bd 46 71 a2 bd
       -0.081579104 0.10318111 -0.09501532 -0.079317614
0000a0 ab 5b 61 bc f9 a8 90 bc d8 15 78 bd e7 0d ea 3d
       -0.0137547655 -0.017658697 -0.060567707 0.11428433
0000b0 9f a9 92 bd 5d a0 82 3c c9 18 c7 3d fd 4b 83 3d
       -0.07161259 0.015945608 0.09721524 0.06410978
0000c0 76 89 9b 3c 6f 44 45 3d fa 89 df 3d 72 ec 92 bc
       0.018986445 0.048160966 0.10914989 -0.017935012
0000d0 ee ce 8a 3d de 23 a1 3c 4d d3 7e 3c 0c e1 2c 3d
       0.0677775 0.019670423 0.015553308 0.04220681
0000e0 ee fb b9 3d 8c 7e cb bd d9 a8 b8 3d 09 f8 59 bd
       0.09081255 -0.09936246 0.0901658 -0.05321506
0000f0 cc 4f a9 3d 90 0e bb 3c b2 84 9b bc ae 31 e1 3d
       0.08267173 0.022834092 -0.018984172 0.10995804
000100 2a 7e 0a be bc ec 0d bd 2d cf 15 bc fa ad 8e 3d
       -0.1352469 -0.034649596 -0.009143633 0.06966777
000110 31 2b e5 bd b2 4a 87 bd 48 ae 57 bd 6a 4e 97 bd
       -0.11189879 -0.06606044 -0.052656442 -0.07388003
000120 d8 c5 90 3d a4 f7 44 bd df 79 0f be 9b f6 39 3d
       0.07068986 -0.04808773 -0.14011334 0.045401197
000130 a4 e8 1d bd 8c 81 c3 3d 15 18 60 3d b4 42 c1 bd
       -0.03855194 0.095461935 0.054710466 -0.09436551
000140 10 7b b8 bd c6 b4 3b bb d7 3b a1 3d 8b 54 e2 3c
       -0.09007847 -0.0028641685 0.07872742 0.027628204
000150 e6 3b 4b bd 2a c0 0a bd 71 aa df 3d 18 f8 a0 3c
       -0.04961767 -0.03387467 0.10921181 0.01964955
000160 ab ff a5 bd 7c 77 1f bd 16 fb c3 3d 68 74 88 bd
       -0.081054054 -0.03893231 0.09569375 -0.06662828
000170 77 b4 0e 3e 1c 64 86 3d 03 d5 9b 3d 20 13 85 3d
       0.1393603 0.06562063 0.07608988 0.064977884
000180 6a 72 7f bc 0f dc 50 3d d3 bc df 3d f7 36 05 be
       -0.015591243 0.050991114 0.10924687 -0.13009249
000190 b9 79 05 bd f6 90 45 3d 43 17 35 3d c5 de 69 3d
       -0.032586787 0.04823395 0.044211637 0.057097215
0001a0 57 89 e3 bc ac 76 49 3d 8e 15 e9 3d 98 df 92 bd
       -0.02777545 0.04918544 0.11381064 -0.071715534
0001b0 6b 14 ea 3c c4 f3 33 bd 88 4f 40 3c e0 c4 4d 3d
       0.02857419 -0.043933645 0.011737712 0.050236583
0001c0 1d 5b d1 bb 50 81 bf bc 87 4a d1 bd 9e 6c 7c 3d
       -0.0063890354 -0.02337709 -0.10219293 0.061627023
0001d0 c8 2e a9 3d 88 e7 5d 3d d8 a6 eb bd ed 85 05 be
       0.08260876 0.054175884 -0.11506432 -0.1303937
0001e0 cf cb 4b 3d 0a ee da bd d3 ea 7d bd 75 93 21 3e
       0.049754914 -0.106899336 -0.061991524 0.15778907
0001f0 aa f9 62 bc da 9e e5 bc aa eb 4e bc 50 97 5f 3c
       -0.01385347 -0.028029848 -0.012629429 0.013646916
000200 a3 4b cb bd cd 62 c1 bc f1 17 17 be 8d 77 d9 bd
       -0.09926536 -0.023606682 -0.14755227 -0.106185056
000210 fb 27 bf bc da 93 cb 3c af b5 1a be bc ec 05 bd
       -0.023334494 0.024850775 -0.1510837 -0.03269647
000220 14 f9 e2 bd 63 f9 bf bc 2a b7 ce bd a0 f5 70 bc
       -0.11082664 -0.023434347 -0.100935295 -0.014706999
000230 9c a7 bc 3d 89 53 fe 3d a3 cc b5 3d 78 c4 4f 3a
       0.092116565 0.12418277 0.08876922 0.00079256995
000240 e1 ba c1 3d d6 aa 36 bd df 1b 84 3d c0 06 9f bc
       0.094594724 -0.044596516 0.064506285 -0.019412398
000250 d6 09 e9 3d 24 4e 5a 3d e2 29 b3 bd b5 7f e9 bd
       0.11378829 0.053297177 -0.08748223 -0.11401311
000260 02 37 21 bc 3f cb 21 be d3 8c eb bd 25 a2 bb bd
       -0.009839775 -0.15800188 -0.115014695 -0.09161786
000270 c1 c4 b0 3d 2d 81 f1 3d dc 68 1e 3e b5 7a 70 bd
       0.08631278 0.117922164 0.15469688 -0.058710773
000280 8b 25 73 bc 08 7c cd bd ca 6f 1a 3e 2b 17 d9 bd
       -0.014840494 -0.10033423 0.15081707 -0.10600122
000290 bd b1 69 3c 00 fc cc 3c 9d 85 ca bd 1f 14 22 bd
       0.0142635675 0.025022507 -0.09888766 -0.03956997
0002a0 18 49 ac bd e6 9a df 3c be 3e 13 3d df 55 ce bd
       -0.08412379 0.027295541 0.035948507 -0.10074972
0002b0 91 49 de 3c f0 ab c7 3d 90 94 7a 3d 93 cc 35 bd
       0.027134689 0.09749591 0.061176836 -0.04438455
0002c0 b7 00 34 3c bc 44 ba 3c f3 19 ce 3d 28 0e c1 3d
       0.010986499 0.022737853 0.10063543 0.09426528
0002d0 7a cc 04 be 2d bb ef 3c d5 6a f6 bd 8e 58 10 be
       -0.12968627 0.029264057 -0.12032095 -0.14096281
0002e0 04 2e 0d be 56 5f dc 3c 9a 1b 19 bd 41 1f 02 3e
       -0.13787085 0.026900928 -0.03737984 0.12707235
0002f0 ac 27 81 3d c1 69 17 3e 83 6f d7 bd 5a e3 fa 3d
       0.06306395 0.14786436 -0.10519316 0.12250395
000300 21 ff 02 be 9f 5a ba bd 9d ba 85 3d 79 bc a6 3d
       -0.12792636 -0.09099316 0.06529734 0.08141417
000310 c5 97 b6 bd 63 a9 55 3d ca f5 a4 3d 05 98 0d 3e
       -0.089156665 0.052163493 0.08054693 0.13827522
000320 7a 17 88 bd 72 e3 44 bd b0 cb aa 3d 23 46 ed 3d
       -0.06645103 -0.04806847 0.083396316 0.11585643
000330 eb d5 c9 bb 82 3e ae 3d b7 48 69 bc bb 2a 76 3c
       -0.006159534 0.08508016 -0.014238528 0.015024836
000340 e0 1a 5f 3c 24 48 59 bd b6 b1 e6 bc 2c 59 8a 3a
       0.013617247 -0.053047314 -0.028160911 0.001055514
000350 48 1c 9d 3d b3 da c5 3d d5 b5 e4 bb e8 f2 d5 ba
       0.0767141 0.09660854 -0.006979684 -0.0016323002
000360 38 b8 88 bd 16 81 c3 3c 0a 05 b0 3d 91 35 7e bd
       -0.06675762 0.023865264 0.08594711 -0.062062804
000370 54 21 b6 3d 9e 1e 85 3b d9 a3 85 bd 35 71 6f 3d
       0.088930756 0.0040624877 -0.06525392 0.058457572
000380 30 a9 f4 bd e8 e4 d5 bc 21 a2 00 3e bc 8d 3f 3d
       -0.119463325 -0.026110128 0.12561847 0.046766028
000390 c7 c5 bf bd 35 98 80 3d 1a 60 c4 bd d7 e1 6f bd
       -0.09363895 0.06279031 -0.095886424 -0.058564987
0003a0 61 b4 2d 3c fb cc be 3d 37 0e 14 3e 4f 3f fb bc
       0.010602088 0.09316441 0.14458548 -0.030669836
0003b0 89 bb a0 3d f6 94 b4 3d 69 67 80 3c 8f 9b 7a 3c
       0.078482695 0.088174745 0.01567431 0.015295877
0003c0 9f ee b5 bd b8 94 22 bd 55 bf ee bd c9 e3 e3 3b
       -0.08883404 -0.03969261 -0.116575874 0.0069546443
0003d0 08 62 a5 bb 17 53 6c bd 2c 43 37 bc fb 7f 7d bb
       -0.0050470866 -0.05769643 -0.011185449 -0.0038681019
0003e0 52 4d 1c be 3e 40 e1 bd 23 9f 4e bd a4 62 69 3d
       -0.1526387 -0.10998581 -0.050444733 0.056978837
0003f0 95 1c 0d bd c4 cd 27 bd a8 b1 13 be 9a 12 1a 3e
       -0.034451086 -0.040967718 -0.14423239 0.15046158

lstm.bias_ih_l1 f4 [256]
000000 e3 54 b8 bd d8 ba 9f bb 78 a4 80 bc a1 89 ad bc
       -0.09000566 -0.0048745684 -0.015703425 -0.02118379
000010 1b df b5 bc fc 77 58 bd 00 11 8c bd dc 9a f8 3d
       -0.022201112 -0.0528488 -0.0683918 0.12138912
000020 51 5a be 3d d6 ca 7a bd 30 ed de bc 3f 90 87 3c
       0.0929457 -0.061228596 -0.02721271 0.016548274
000030 eb 28 04 3e a6 07 8b 3b 7e a3 87 3c 45 3f 96 3d
       0.12906234 0.004242855 0.016557451 0.073362865
000040 91 8a a5 bd d8 be 57 bd 1b 1b b2 3d ae 31 a9 bd
       -0.0808307 -0.052672237 0.08696576 -0.08261429
000050 cf 40 3a 3c 66 12 2b bd bb e0 5f bd 5a 30 e7 bc
       0.011367991 -0.041765593 -0.05465768 -0.028221298
000060 73 da 51 bc fb f1 ea 3a db 03 65 3a 9e b1 d3 3d
       -0.01280843 0.0017924899 0.0008736231 0.10336612
000070 4b 68 68 3d 0e 14 9b bd c2 07 06 3e 8f 1a 45 bc
       0.056740087 -0.075721845 0.13088897 -0.012030258
000080 16 64 00 bd c3 6f b8 3d 22 74 87 3d b8 2d 8f bc
       -0.03134545 0.09005692 0.066139475 -0.017477855
000090 96 2d a6 bd b9 91 83 bd 69 27 83 bd 6f ef c2 bb
       -0.081141636 -0.06424279 -0.06404001 -0.005948953
0000a0 17 5d be 3c 25 6b 9c bd 9b 2b 46 3c 5b d1 aa 3d
       0.023237748 -0.07637624 0.012095357 0.08340713
0000b0 46 07 e8 3d 34 b9 92 3d 7b 86 32 bc 70 0a 88 3d
       0.11329512 0.07164231 -0.01089632 0.06642616
0000c0 3e 28 a8 bd 96 26 9e bc 48 da c8 bd eb b3 c5 bd
       -0.082108006 -0.019305509 -0.09807259 -0.09653457
0000d0 2d 3e 1c 3e 60 b8 cb 3d b6 5f 0c 3e 58 57 64 3d
       0.15258093 0.09947276 0.13708386 0.05574736
0000e0 21 4a 9e 3d 08 08 f8 3d d9 87 00 3e a1 4f 84 bd
       0.07728983 0.12110907 0.12551822 -0.064605005
0000f0 4e 97 53 3d 53 77 e5 3d 7b 23 f2 bc bb bc 77 3d
       0.051657967 0.112044 -0.029557934 0.06048272
000100 b6 df 46 bc b9 8e cf 3c 8b 67 bd bc 80 cb bc 3d
       -0.012138298 0.02533661 -0.023120662 0.09218502
000110 81 d6 38 bc 58 d1 d3 3d 3b ea 82 3d 4c 94 48 3c
       -0.0112816105 0.103426635 0.06392332 0.012242388
000120 e3 7c cf 3d e2 63 b8 3c a6 85 f8 bc 20 08 00 bd
       0.10131242 0.022508565 -0.030337166 -0.03125775
000130 e4 12 89 bd 18 4f c1 bd 19 c8 16 3e 47 28 91 bd
       -0.06693056 -0.09438914 0.14724769 -0.070877604
000140 0a da 9e 3d 64 52 43 bd 6d 97 3d bd ad 8a 32 bd
       0.077564314 -0.047685996 -0.04628699 -0.043589283
000150 00 1e ba bd fa 5a b6 3d 7e 41 eb bc 15 5c 8d bc
       -0.09087753 0.08904071 -0.028717753 -0.017255822
000160 d7 f5 6c 3d c9 55 f2 3d 54 f7 cd 3a bf e0 a4 bc
       0.05785164 0.118327685 0.0015713968 -0.020126699
000170 3c 36 6a bd a3 29 44 bd 5c 3e 0d 3e 43 e2 b4 bd
       -0.05718063 -0.04789127 0.1379332 -0.088322185
000180 8e 3c 65 3d 0d 38 2e bd 44 41 69 bd 50 79 73 bc
       0.055965953 -0.042533923 -0.056947008 -0.014860466
000190 3b 50 a0 bd 6b d1 6d bd 7c 3e 00 3e 9d 33 b6 bd
       -0.07827803 -0.058061045 0.12523836 -0.08896563
0001a0 74 ee 1e 3b 1e cf 9e 3d bf 76 99 bc 77 a4 61 3d
       0.0024251016 0.07754348 -0.01873338 0.055088487
0001b0 78 f3 19 bd 70 a7 d0 bd 08 04 29 bd 77 91 05 3e
       -0.037585706 -0.10188186 -0.04126361 0.13043772
0001c0 9c 1b 07 3e 9f 71 2c bd ec c3 c8 3d d4 02 b1 ba
       0.13194126 -0.042100545 0.09802994 -0.0013504871
0001d0 00 c6 ff 3d 54 37 01 3e 73 55 e9 3d 44 20 dc 3b
       0.124889374 0.12618762 0.11393251 0.0067177135
0001e0 be 85 2d 3c d8 9f 60 bd 12 d3 5e bd a7 d3 06 bc
       0.010590969 -0.05483994 -0.05440051 -0.008229173
0001f0 3e 70 49 3d e0 ac 1a 3e 0b 90 6b bd f6 59 b7 3d
       0.049179308 0.15105009 -0.057510417 0.089527056
000200 08 f2 96 bd 3a 1d cd 3c 0a 88 72 bd c1 79 c3 bd
       -0.073703825 0.02503835 -0.05921177 -0.09544707
000210 54 5f 2f bd bf f9 1f 3d cc d1 16 be 3b 36 e3 3d
       -0.04281552 0.039056536 -0.14728469 0.11094328
000220 bc 5d 01 be 01 32 fe 3a a5 e6 16 be 3f 56 d2 3c
       -0.12633413 0.0019393564 -0.14736421 0.025675891
000230 a7 d8 ba 3d d0 0b 85 bc a1 73 df 3c d8 44 0f be
       0.091233544 -0.016240984 0.027276816 -0.13991106
000240 1d cd e8 3c fd 63 f2 bd 3c 6c 92 3d 1c a0 52 3d
       0.028418118 -0.118354775 0.0714955 0.051422223
000250 1d 99 dc 3d f9 4a 28 bd eb 20 06 3e d6 6c d8 3b
       0.107713915 -0.041087124 0.13098495 0.006604771
000260 23 80 38 bc bd f5 0e 3c f6 ad cf bc 42 d6 8d 3d
       -0.011261019 0.008725581 -0.025351506 0.06925632
000270 26 a4 a8 bd 52 5f 5d 3d 7f e7 11 3e 25 be dd bc
       -0.08234434 0.054045983 0.14248465 -0.027068207
000280 63 6d 01 3c b7 0a ef bd 5d 85 b0 3d ef d2 4c bc
       0.007899615 -0.116719656 0.08619187 -0.012501462
000290 3a c5 94 bd c5 d6 fd 3d 1d 04 1b be 83 9c 14 be
       -0.072641805 0.1239448 -0.15138288 -0.1451283
0002a0 2d 10 f0 3d ad 85 13 be de 5e 8b bc b9 e0 fb ba
       0.11721835 -0.14406462 -0.01701301 -0.0019216753
0002b0 eb 33 29 bd 1d 4c c6 bc 33 10 1c be 27 28 85 3d
       -0.04130928 -0.024206216 -0.15240555 0.06501799
0002c0 d4 b6 d7 3d 45 a3 d4 bd bd f8 8f bc 7f 76 7b bd
       0.105329186 -0.10382704 -0.017574662 -0.061392304
0002d0 c3 bd e5 bd 43 31 fd 3d 50 9c 52 bd f1 ec b8 3d
       -0.11217835 0.123629116 -0.051418602 0.09029568
0002e0 26 96 da 3c 84 23 13 bd 17 36 72 3d df 32 e6 3d
       0.026682924 -0.035922542 0.059133615 0.11240172
0002f0 43 d4 32 bd 58 f8 b2 3b fe f9 76 bc 38 18 a8 bd
       -0.04365946 0.005461734 -0.015074251 -0.08207744
000300 a9 a7 5e 3d 70 71 0a 3e e4 46 01 bd 3d 8e 2f 3e
       0.054359112 0.13519835 -0.031561747 0.17144103
000310 1a 94 37 3e 16 5f f3 bc d5 65 2c 3c 57 9c 0e 3e
       0.1792759 -0.029708426 0.0105223255 0.13926826
000320 55 4e 97 bc 4f 26 8a 3a f3 08 cb 3d d5 63 59 bb
       -0.018469969 0.0010539981 0.09913816 -0.0033171077
000330 f7 92 2c 3e 53 6c eb 3c 61 d5 f6 3c 80 6f 1b 3e
       0.16852938 0.028738176 0.030131044 0.15179253
000340 12 9c 8a bd 10 87 5a bc d4 40 82 bc 10 51 d4 3d
       -0.06768049 -0.0133378655 -0.015900053 0.10367024
000350 49 f3 77 bd a9 52 2e 3e 3a 9a 2e 3e f7 14 f9 bb
       -0.06053475 0.1702372 0.1705102 -0.007601376
000360 80 dd 86 3c a9 81 67 3d f2 97 57 3d 9d ee 5d bd
       0.016463041 0.056520138 0.05263514 -0.054182637
000370 5c 2c 28 3d 4d 75 e5 3c 73 fd 77 bd 6f a8 dc 3d
       0.04105793 0.028010035 -0.060544442 0.10774314
000380 c2 aa 26 3e 67 6a 09 3e a8 48 d8 3c 73 6f 49 bc
       0.16276076 0.13419496 0.026401833 -0.012294638
000390 8b f6 20 3e 35 87 df 3d 3f 8e 28 bd b1 62 a4 3d
       0.15719049 0.109144606 -0.04115128 0.080266364
0003a0 5d df 41 3d 8c c8 83 3c f4 c2 19 3d 7e 01 e8 bc
       0.047332156 0.01608684 0.037539437 -0.028321024
0003b0 6e 4c 12 3e 71 2d f1 3b 22 4b 62 bc 4d 44 2c bc
       0.14286968 0.0073601534 -0.013811858 -0.010514331
0003c0 38 ce 08 bd c3 ea b4 bc 71 eb 76 3d 57 d7 19 bc
       -0.03339979 -0.0220846 0.06028313 -0.00938972
0003d0 c7 6f 99 3d 66 0f ea 3d 52 75 e4 3d 28 66 93 3d
       0.07492023 0.11428718 0.111551896 0.07197219
0003e0 41 17 f6 3d 3c 1e 6d bd 27 1e 5d bd ba fb 1d bc
       0.12016154 -0.057890162 -0.053983834 -0.009642536
0003f0 25 78 ff 3c 6f f9 af 3d bd 56 4a 3d 87 1b f5 3d
       0.031185219 0.085924976 0.049399126 0.11968141
